…
I0818 02:02:09.921921 51282 net.cpp:294] The NetState phase (0) differed from the phase (1) specified by a rule in layer accuracy
I0818 02:02:09.922155 51282 net.cpp:51] Initializing net from parameters: 
name: "AlexNet"
state {
  phase: TRAIN
  level: 0
  stage: ""
}
layer {
  name: "data"
  type: "Data"
  top: "data"
  top: "label"
  include {
    phase: TRAIN
  }
  transform_param {
    mirror: true
    crop_size: 227
    mean_file: "data/ilsvrc12/imagenet_mean.binaryproto"
  }
  data_param {
    source: "/home/neuroShare/data/ImageNet/ILSVRC2012_data/ilsvrc12_train_lmdb"
    batch_size: 256
    backend: LMDB
  }
}
layer {
  name: "conv1"
  type: "Convolution"
  bottom: "data"
  top: "conv1"
  param {
    lr_mult: 1
    decay_mult: 1
  }
  param {
    lr_mult: 2
    decay_mult: 0
  }
  convolution_param {
    num_output: 96
    kernel_size: 11
    stride: 2
    weight_filler {
      type: "gaussian"
      std: 0.01
    }
    bias_filler {
      type: "constant"
      value: 0
    }
  }
}
layer {
  name: "relu1"
  type: "ReLU"
  bottom: "conv1"
  top: "conv1"
}
layer {
  name: "pool1"
  type: "Pooling"
  bottom: "conv1"
  top: "pool1"
  pooling_param {
    pool: MAX
    kernel_size: 7
    stride: 3
  }
}
layer {
  name: "conv2"
  type: "Convolution"
  bottom: "pool1"
  top: "conv2"
  param {
    lr_mult: 1
    decay_mult: 1
  }
  param {
    lr_mult: 2
    decay_mult: 0
  }
  convolution_param {
    num_output: 256
    pad: 2
    kernel_size: 5
    group: 2
    weight_filler {
      type: "gaussian"
      std: 0.01
    }
    bias_filler {
      type: "constant"
      value: 0.1
    }
  }
}
layer {
  name: "relu2"
  type: "ReLU"
  bottom: "conv2"
  top: "conv2"
}
layer {
  name: "norm2"
  type: "LRN"
  bottom: "conv2"
  top: "norm2"
  lrn_param {
    local_size: 5
    alpha: 0.0001
    beta: 0.75
  }
}
layer {
  name: "pool2"
  type: "Pooling"
  bottom: "norm2"
  top: "pool2"
  pooling_param {
    pool: MAX
    kernel_size: 3
    stride: 2
  }
}
layer {
  name: "conv3"
  type: "Convolution"
  bottom: "pool2"
  top: "conv3"
  param {
    lr_mult: 1
    decay_mult: 1
  }
  param {
    lr_mult: 2
    decay_mult: 0
  }
  convolution_param {
    num_output: 384
    pad: 1
    kernel_size: 3
    weight_filler {
      type: "gaussian"
      std: 0.01
    }
    bias_filler {
      type: "constant"
      value: 0
    }
  }
}
layer {
  name: "relu3"
  type: "ReLU"
  bottom: "conv3"
  top: "conv3"
}
layer {
  name: "conv4"
  type: "Convolution"
  bottom: "conv3"
  top: "conv4"
  param {
    lr_mult: 1
    decay_mult: 1
  }
  param {
    lr_mult: 2
    decay_mult: 0
  }
  convolution_param {
    num_output: 384
    pad: 1
    kernel_size: 3
    group: 2
    weight_filler {
      type: "gaussian"
      std: 0.01
    }
    bias_filler {
      type: "constant"
      value: 0.1
    }
  }
}
layer {
  name: "relu4"
  type: "ReLU"
  bottom: "conv4"
  top: "conv4"
}
layer {
  name: "conv5"
  type: "Convolution"
  bottom: "conv4"
  top: "conv5"
  param {
    lr_mult: 1
    decay_mult: 1
  }
  param {
    lr_mult: 2
    decay_mult: 0
  }
  convolution_param {
    num_output: 256
    pad: 1
    kernel_size: 3
    group: 2
    weight_filler {
      type: "gaussian"
      std: 0.01
    }
    bias_filler {
      type: "constant"
      value: 0.1
    }
  }
}
layer {
  name: "relu5"
  type: "ReLU"
  bottom: "conv5"
  top: "conv5"
}
layer {
  name: "pool5"
  type: "Pooling"
  bottom: "conv5"
  top: "pool5"
  pooling_param {
    pool: MAX
    kernel_size: 3
    stride: 2
  }
}
layer {
  name: "fc6"
  type: "InnerProduct"
  bottom: "pool5"
  top: "fc6"
  param {
    lr_mult: 1
    decay_mult: 1
  }
  param {
    lr_mult: 2
    decay_mult: 0
  }
  inner_product_param {
    num_output: 4096
    weight_filler {
      type: "gaussian"
      std: 0.005
    }
    bias_filler {
      type: "constant"
      value: 0.1
    }
  }
}
layer {
  name: "relu6"
  type: "ReLU"
  bottom: "fc6"
  top: "fc6"
}
layer {
  name: "drop6"
  type: "Dropout"
  bottom: "fc6"
  top: "fc6"
  dropout_param {
    dropout_ratio: 0.5
  }
}
layer {
  name: "fc7"
  type: "InnerProduct"
  bottom: "fc6"
  top: "fc7"
  param {
    lr_mult: 1
    decay_mult: 1
  }
  param {
    lr_mult: 2
    decay_mult: 0
  }
  inner_product_param {
    num_output: 4096
    weight_filler {
      type: "gaussian"
      std: 0.005
    }
    bias_filler {
      type: "constant"
      value: 0.1
    }
  }
}
layer {
  name: "relu7"
  type: "ReLU"
  bottom: "fc7"
  top: "fc7"
}
layer {
  name: "drop7"
  type: "Dropout"
  bottom: "fc7"
  top: "fc7"
  dropout_param {
    dropout_ratio: 0.5
  }
}
layer {
  name: "fc8"
  type: "InnerProduct"
  bottom: "fc7"
  top: "fc8"
  param {
    lr_mult: 1
    decay_mult: 1
  }
  param {
    lr_mult: 2
    decay_mult: 0
  }
  inner_product_param {
    num_output: 1000
    weight_filler {
      type: "gaussian"
      std: 0.01
    }
    bias_filler {
      type: "constant"
      value: 0
    }
  }
}
layer {
  name: "loss"
  type: "SoftmaxWithLoss"
  bottom: "fc8"
  bottom: "label"
  top: "loss"
}
I0818 02:02:09.922324 51282 layer_factory.hpp:77] Creating layer data
I0818 02:02:09.922731 51282 db_lmdb.cpp:35] Opened lmdb /home/neuroShare/data/ImageNet/ILSVRC2012_data/ilsvrc12_train_lmdb
I0818 02:02:09.922783 51282 net.cpp:84] Creating Layer data
I0818 02:02:09.922796 51282 net.cpp:380] data -> data
I0818 02:02:09.922837 51282 net.cpp:380] data -> label
I0818 02:02:09.922857 51282 data_transformer.cpp:25] Loading mean file from: data/ilsvrc12/imagenet_mean.binaryproto
I0818 02:02:09.927217 51282 data_layer.cpp:45] output data size: 256,3,227,227
I0818 02:02:10.393596 51282 net.cpp:122] Setting up data
I0818 02:02:10.393663 51282 net.cpp:129] Top shape: 256 3 227 227 (39574272)
I0818 02:02:10.393671 51282 net.cpp:129] Top shape: 256 (256)
I0818 02:02:10.393676 51282 net.cpp:137] Memory required for data: 158298112
I0818 02:02:10.393688 51282 layer_factory.hpp:77] Creating layer conv1
I0818 02:02:10.393721 51282 net.cpp:84] Creating Layer conv1
I0818 02:02:10.393729 51282 net.cpp:406] conv1 <- data
I0818 02:02:10.393748 51282 net.cpp:380] conv1 -> conv1
I0818 02:02:10.396745 51282 net.cpp:122] Setting up conv1
I0818 02:02:10.396770 51282 net.cpp:129] Top shape: 256 96 109 109 (291987456)
I0818 02:02:10.396773 51282 net.cpp:137] Memory required for data: 1326247936
I0818 02:02:10.396790 51282 layer_factory.hpp:77] Creating layer relu1
I0818 02:02:10.396801 51282 net.cpp:84] Creating Layer relu1
I0818 02:02:10.396806 51282 net.cpp:406] relu1 <- conv1
I0818 02:02:10.396811 51282 net.cpp:367] relu1 -> conv1 (in-place)
I0818 02:02:10.396821 51282 net.cpp:122] Setting up relu1
I0818 02:02:10.396826 51282 net.cpp:129] Top shape: 256 96 109 109 (291987456)
I0818 02:02:10.396828 51282 net.cpp:137] Memory required for data: 2494197760
I0818 02:02:10.396831 51282 layer_factory.hpp:77] Creating layer pool1
I0818 02:02:10.396838 51282 net.cpp:84] Creating Layer pool1
I0818 02:02:10.396853 51282 net.cpp:406] pool1 <- conv1
I0818 02:02:10.396860 51282 net.cpp:380] pool1 -> pool1
I0818 02:02:10.396924 51282 net.cpp:122] Setting up pool1
I0818 02:02:10.396931 51282 net.cpp:129] Top shape: 256 96 35 35 (30105600)
I0818 02:02:10.396935 51282 net.cpp:137] Memory required for data: 2614620160
I0818 02:02:10.396939 51282 layer_factory.hpp:77] Creating layer conv2
I0818 02:02:10.396950 51282 net.cpp:84] Creating Layer conv2
I0818 02:02:10.396955 51282 net.cpp:406] conv2 <- pool1
I0818 02:02:10.396984 51282 net.cpp:380] conv2 -> conv2
I0818 02:02:10.422746 51282 net.cpp:122] Setting up conv2
I0818 02:02:10.422762 51282 net.cpp:129] Top shape: 256 256 35 35 (80281600)
I0818 02:02:10.422766 51282 net.cpp:137] Memory required for data: 2935746560
I0818 02:02:10.422775 51282 layer_factory.hpp:77] Creating layer relu2
I0818 02:02:10.422782 51282 net.cpp:84] Creating Layer relu2
I0818 02:02:10.422786 51282 net.cpp:406] relu2 <- conv2
I0818 02:02:10.422791 51282 net.cpp:367] relu2 -> conv2 (in-place)
I0818 02:02:10.422798 51282 net.cpp:122] Setting up relu2
I0818 02:02:10.422803 51282 net.cpp:129] Top shape: 256 256 35 35 (80281600)
I0818 02:02:10.422806 51282 net.cpp:137] Memory required for data: 3256872960
I0818 02:02:10.422809 51282 layer_factory.hpp:77] Creating layer norm2
I0818 02:02:10.422819 51282 net.cpp:84] Creating Layer norm2
I0818 02:02:10.422822 51282 net.cpp:406] norm2 <- conv2
I0818 02:02:10.422827 51282 net.cpp:380] norm2 -> norm2
I0818 02:02:10.422866 51282 net.cpp:122] Setting up norm2
I0818 02:02:10.422873 51282 net.cpp:129] Top shape: 256 256 35 35 (80281600)
I0818 02:02:10.422876 51282 net.cpp:137] Memory required for data: 3577999360
I0818 02:02:10.422879 51282 layer_factory.hpp:77] Creating layer pool2
I0818 02:02:10.422884 51282 net.cpp:84] Creating Layer pool2
I0818 02:02:10.422888 51282 net.cpp:406] pool2 <- norm2
I0818 02:02:10.422894 51282 net.cpp:380] pool2 -> pool2
I0818 02:02:10.422922 51282 net.cpp:122] Setting up pool2
I0818 02:02:10.422927 51282 net.cpp:129] Top shape: 256 256 17 17 (18939904)
I0818 02:02:10.422930 51282 net.cpp:137] Memory required for data: 3653758976
I0818 02:02:10.422933 51282 layer_factory.hpp:77] Creating layer conv3
I0818 02:02:10.422945 51282 net.cpp:84] Creating Layer conv3
I0818 02:02:10.422950 51282 net.cpp:406] conv3 <- pool2
I0818 02:02:10.422967 51282 net.cpp:380] conv3 -> conv3
I0818 02:02:10.448865 51282 net.cpp:122] Setting up conv3
I0818 02:02:10.448878 51282 net.cpp:129] Top shape: 256 384 17 17 (28409856)
I0818 02:02:10.448880 51282 net.cpp:137] Memory required for data: 3767398400
I0818 02:02:10.448889 51282 layer_factory.hpp:77] Creating layer relu3
I0818 02:02:10.448894 51282 net.cpp:84] Creating Layer relu3
I0818 02:02:10.448897 51282 net.cpp:406] relu3 <- conv3
I0818 02:02:10.448902 51282 net.cpp:367] relu3 -> conv3 (in-place)
I0818 02:02:10.448909 51282 net.cpp:122] Setting up relu3
I0818 02:02:10.448912 51282 net.cpp:129] Top shape: 256 384 17 17 (28409856)
I0818 02:02:10.448915 51282 net.cpp:137] Memory required for data: 3881037824
I0818 02:02:10.448916 51282 layer_factory.hpp:77] Creating layer conv4
I0818 02:02:10.448925 51282 net.cpp:84] Creating Layer conv4
I0818 02:02:10.448927 51282 net.cpp:406] conv4 <- conv3
I0818 02:02:10.448932 51282 net.cpp:380] conv4 -> conv4
I0818 02:02:10.468031 51282 net.cpp:122] Setting up conv4
I0818 02:02:10.468044 51282 net.cpp:129] Top shape: 256 384 17 17 (28409856)
I0818 02:02:10.468046 51282 net.cpp:137] Memory required for data: 3994677248
I0818 02:02:10.468051 51282 layer_factory.hpp:77] Creating layer relu4
I0818 02:02:10.468057 51282 net.cpp:84] Creating Layer relu4
I0818 02:02:10.468060 51282 net.cpp:406] relu4 <- conv4
I0818 02:02:10.468065 51282 net.cpp:367] relu4 -> conv4 (in-place)
I0818 02:02:10.468072 51282 net.cpp:122] Setting up relu4
I0818 02:02:10.468076 51282 net.cpp:129] Top shape: 256 384 17 17 (28409856)
I0818 02:02:10.468078 51282 net.cpp:137] Memory required for data: 4108316672
I0818 02:02:10.468081 51282 layer_factory.hpp:77] Creating layer conv5
I0818 02:02:10.468089 51282 net.cpp:84] Creating Layer conv5
I0818 02:02:10.468092 51282 net.cpp:406] conv5 <- conv4
I0818 02:02:10.468098 51282 net.cpp:380] conv5 -> conv5
I0818 02:02:10.480960 51282 net.cpp:122] Setting up conv5
I0818 02:02:10.480971 51282 net.cpp:129] Top shape: 256 256 17 17 (18939904)
I0818 02:02:10.480974 51282 net.cpp:137] Memory required for data: 4184076288
I0818 02:02:10.480983 51282 layer_factory.hpp:77] Creating layer relu5
I0818 02:02:10.480989 51282 net.cpp:84] Creating Layer relu5
I0818 02:02:10.481007 51282 net.cpp:406] relu5 <- conv5
I0818 02:02:10.481014 51282 net.cpp:367] relu5 -> conv5 (in-place)
I0818 02:02:10.481019 51282 net.cpp:122] Setting up relu5
I0818 02:02:10.481022 51282 net.cpp:129] Top shape: 256 256 17 17 (18939904)
I0818 02:02:10.481025 51282 net.cpp:137] Memory required for data: 4259835904
I0818 02:02:10.481027 51282 layer_factory.hpp:77] Creating layer pool5
I0818 02:02:10.481032 51282 net.cpp:84] Creating Layer pool5
I0818 02:02:10.481035 51282 net.cpp:406] pool5 <- conv5
I0818 02:02:10.481040 51282 net.cpp:380] pool5 -> pool5
I0818 02:02:10.481070 51282 net.cpp:122] Setting up pool5
I0818 02:02:10.481076 51282 net.cpp:129] Top shape: 256 256 8 8 (4194304)
I0818 02:02:10.481091 51282 net.cpp:137] Memory required for data: 4276613120
I0818 02:02:10.481093 51282 layer_factory.hpp:77] Creating layer fc6
I0818 02:02:10.481104 51282 net.cpp:84] Creating Layer fc6
I0818 02:02:10.481112 51282 net.cpp:406] fc6 <- pool5
I0818 02:02:10.481119 51282 net.cpp:380] fc6 -> fc6
I0818 02:02:12.394891 51282 net.cpp:122] Setting up fc6
I0818 02:02:12.394934 51282 net.cpp:129] Top shape: 256 4096 (1048576)
I0818 02:02:12.394938 51282 net.cpp:137] Memory required for data: 4280807424
I0818 02:02:12.394955 51282 layer_factory.hpp:77] Creating layer relu6
I0818 02:02:12.394992 51282 net.cpp:84] Creating Layer relu6
I0818 02:02:12.394997 51282 net.cpp:406] relu6 <- fc6
I0818 02:02:12.395010 51282 net.cpp:367] relu6 -> fc6 (in-place)
I0818 02:02:12.395035 51282 net.cpp:122] Setting up relu6
I0818 02:02:12.395040 51282 net.cpp:129] Top shape: 256 4096 (1048576)
I0818 02:02:12.395041 51282 net.cpp:137] Memory required for data: 4285001728
I0818 02:02:12.395045 51282 layer_factory.hpp:77] Creating layer drop6
I0818 02:02:12.395066 51282 net.cpp:84] Creating Layer drop6
I0818 02:02:12.395068 51282 net.cpp:406] drop6 <- fc6
I0818 02:02:12.395073 51282 net.cpp:367] drop6 -> fc6 (in-place)
I0818 02:02:12.395100 51282 net.cpp:122] Setting up drop6
I0818 02:02:12.395113 51282 net.cpp:129] Top shape: 256 4096 (1048576)
I0818 02:02:12.395117 51282 net.cpp:137] Memory required for data: 4289196032
I0818 02:02:12.395119 51282 layer_factory.hpp:77] Creating layer fc7
I0818 02:02:12.395133 51282 net.cpp:84] Creating Layer fc7
I0818 02:02:12.395138 51282 net.cpp:406] fc7 <- fc6
I0818 02:02:12.395145 51282 net.cpp:380] fc7 -> fc7
I0818 02:02:12.878096 51282 net.cpp:122] Setting up fc7
I0818 02:02:12.878132 51282 net.cpp:129] Top shape: 256 4096 (1048576)
I0818 02:02:12.878136 51282 net.cpp:137] Memory required for data: 4293390336
I0818 02:02:12.878145 51282 layer_factory.hpp:77] Creating layer relu7
I0818 02:02:12.878167 51282 net.cpp:84] Creating Layer relu7
I0818 02:02:12.878173 51282 net.cpp:406] relu7 <- fc7
I0818 02:02:12.878181 51282 net.cpp:367] relu7 -> fc7 (in-place)
I0818 02:02:12.878192 51282 net.cpp:122] Setting up relu7
I0818 02:02:12.878196 51282 net.cpp:129] Top shape: 256 4096 (1048576)
I0818 02:02:12.878199 51282 net.cpp:137] Memory required for data: 4297584640
I0818 02:02:12.878202 51282 layer_factory.hpp:77] Creating layer drop7
I0818 02:02:12.878209 51282 net.cpp:84] Creating Layer drop7
I0818 02:02:12.878212 51282 net.cpp:406] drop7 <- fc7
I0818 02:02:12.878217 51282 net.cpp:367] drop7 -> fc7 (in-place)
I0818 02:02:12.878234 51282 net.cpp:122] Setting up drop7
I0818 02:02:12.878240 51282 net.cpp:129] Top shape: 256 4096 (1048576)
I0818 02:02:12.878243 51282 net.cpp:137] Memory required for data: 4301778944
I0818 02:02:12.878247 51282 layer_factory.hpp:77] Creating layer fc8
I0818 02:02:12.878257 51282 net.cpp:84] Creating Layer fc8
I0818 02:02:12.878262 51282 net.cpp:406] fc8 <- fc7
I0818 02:02:12.878269 51282 net.cpp:380] fc8 -> fc8
I0818 02:02:12.995770 51282 net.cpp:122] Setting up fc8
I0818 02:02:12.995800 51282 net.cpp:129] Top shape: 256 1000 (256000)
I0818 02:02:12.995803 51282 net.cpp:137] Memory required for data: 4302802944
I0818 02:02:12.995812 51282 layer_factory.hpp:77] Creating layer loss
I0818 02:02:12.995831 51282 net.cpp:84] Creating Layer loss
I0818 02:02:12.995836 51282 net.cpp:406] loss <- fc8
I0818 02:02:12.995872 51282 net.cpp:406] loss <- label
I0818 02:02:12.995880 51282 net.cpp:380] loss -> loss
I0818 02:02:12.995905 51282 layer_factory.hpp:77] Creating layer loss
…
I0818 02:02:12.998102 51282 net.cpp:294] The NetState phase (1) differed from the phase (0) specified by a rule in layer data
I0818 02:02:12.998317 51282 net.cpp:51] Initializing net from parameters: 
name: "AlexNet"
state {
  phase: TEST
}
layer {
  name: "data"
  type: "Data"
  top: "data"
  top: "label"
  include {
    phase: TEST
  }
  transform_param {
    mirror: false
    crop_size: 227
    mean_file: "data/ilsvrc12/imagenet_mean.binaryproto"
  }
  data_param {
    source: "/home/neuroShare/data/ImageNet/ILSVRC2012_data/ilsvrc12_val_lmdb"
    batch_size: 50
    backend: LMDB
  }
}
layer {
  name: "conv1"
  type: "Convolution"
  bottom: "data"
  top: "conv1"
  param {
    lr_mult: 1
    decay_mult: 1
  }
  param {
    lr_mult: 2
    decay_mult: 0
  }
  convolution_param {
    num_output: 96
    kernel_size: 11
    stride: 2
    weight_filler {
      type: "gaussian"
      std: 0.01
    }
    bias_filler {
      type: "constant"
      value: 0
    }
  }
}
layer {
  name: "relu1"
  type: "ReLU"
  bottom: "conv1"
  top: "conv1"
}
layer {
  name: "pool1"
  type: "Pooling"
  bottom: "conv1"
  top: "pool1"
  pooling_param {
    pool: MAX
    kernel_size: 7
    stride: 3
  }
}
layer {
  name: "conv2"
  type: "Convolution"
  bottom: "pool1"
  top: "conv2"
  param {
    lr_mult: 1
    decay_mult: 1
  }
  param {
    lr_mult: 2
    decay_mult: 0
  }
  convolution_param {
    num_output: 256
    pad: 2
    kernel_size: 5
    group: 2
    weight_filler {
      type: "gaussian"
      std: 0.01
    }
    bias_filler {
      type: "constant"
      value: 0.1
    }
  }
}
layer {
  name: "relu2"
  type: "ReLU"
  bottom: "conv2"
  top: "conv2"
}
layer {
  name: "norm2"
  type: "LRN"
  bottom: "conv2"
  top: "norm2"
  lrn_param {
    local_size: 5
    alpha: 0.0001
    beta: 0.75
  }
}
layer {
  name: "pool2"
  type: "Pooling"
  bottom: "norm2"
  top: "pool2"
  pooling_param {
    pool: MAX
    kernel_size: 3
    stride: 2
  }
}
layer {
  name: "conv3"
  type: "Convolution"
  bottom: "pool2"
  top: "conv3"
  param {
    lr_mult: 1
    decay_mult: 1
  }
  param {
    lr_mult: 2
    decay_mult: 0
  }
  convolution_param {
    num_output: 384
    pad: 1
    kernel_size: 3
    weight_filler {
      type: "gaussian"
      std: 0.01
    }
    bias_filler {
      type: "constant"
      value: 0
    }
  }
}
layer {
  name: "relu3"
  type: "ReLU"
  bottom: "conv3"
  top: "conv3"
}
layer {
  name: "conv4"
  type: "Convolution"
  bottom: "conv3"
  top: "conv4"
  param {
    lr_mult: 1
    decay_mult: 1
  }
  param {
    lr_mult: 2
    decay_mult: 0
  }
  convolution_param {
    num_output: 384
    pad: 1
    kernel_size: 3
    group: 2
    weight_filler {
      type: "gaussian"
      std: 0.01
    }
    bias_filler {
      type: "constant"
      value: 0.1
    }
  }
}
layer {
  name: "relu4"
  type: "ReLU"
  bottom: "conv4"
  top: "conv4"
}
layer {
  name: "conv5"
  type: "Convolution"
  bottom: "conv4"
  top: "conv5"
  param {
    lr_mult: 1
    decay_mult: 1
  }
  param {
    lr_mult: 2
    decay_mult: 0
  }
  convolution_param {
    num_output: 256
    pad: 1
    kernel_size: 3
    group: 2
    weight_filler {
      type: "gaussian"
      std: 0.01
    }
    bias_filler {
      type: "constant"
      value: 0.1
    }
  }
}
layer {
  name: "relu5"
  type: "ReLU"
  bottom: "conv5"
  top: "conv5"
}
layer {
  name: "pool5"
  type: "Pooling"
  bottom: "conv5"
  top: "pool5"
  pooling_param {
    pool: MAX
    kernel_size: 3
    stride: 2
  }
}
layer {
  name: "fc6"
  type: "InnerProduct"
  bottom: "pool5"
  top: "fc6"
  param {
    lr_mult: 1
    decay_mult: 1
  }
  param {
    lr_mult: 2
    decay_mult: 0
  }
  inner_product_param {
    num_output: 4096
    weight_filler {
      type: "gaussian"
      std: 0.005
    }
    bias_filler {
      type: "constant"
      value: 0.1
    }
  }
}
layer {
  name: "relu6"
  type: "ReLU"
  bottom: "fc6"
  top: "fc6"
}
layer {
  name: "drop6"
  type: "Dropout"
  bottom: "fc6"
  top: "fc6"
  dropout_param {
    dropout_ratio: 0.5
  }
}
layer {
  name: "fc7"
  type: "InnerProduct"
  bottom: "fc6"
  top: "fc7"
  param {
    lr_mult: 1
    decay_mult: 1
  }
  param {
    lr_mult: 2
    decay_mult: 0
  }
  inner_product_param {
    num_output: 4096
    weight_filler {
      type: "gaussian"
      std: 0.005
    }
    bias_filler {
      type: "constant"
      value: 0.1
    }
  }
}
layer {
  name: "relu7"
  type: "ReLU"
  bottom: "fc7"
  top: "fc7"
}
layer {
  name: "drop7"
  type: "Dropout"
  bottom: "fc7"
  top: "fc7"
  dropout_param {
    dropout_ratio: 0.5
  }
}
layer {
  name: "fc8"
  type: "InnerProduct"
  bottom: "fc7"
  top: "fc8"
  param {
    lr_mult: 1
    decay_mult: 1
  }
  param {
    lr_mult: 2
    decay_mult: 0
  }
  inner_product_param {
    num_output: 1000
    weight_filler {
      type: "gaussian"
      std: 0.01
    }
    bias_filler {
      type: "constant"
      value: 0
    }
  }
}
layer {
  name: "accuracy"
  type: "Accuracy"
  bottom: "fc8"
  bottom: "label"
  top: "accuracy"
  include {
    phase: TEST
  }
}
layer {
  name: "loss"
  type: "SoftmaxWithLoss"
  bottom: "fc8"
  bottom: "label"
  top: "loss"
}
I0818 02:02:12.998471 51282 layer_factory.hpp:77] Creating layer data
I0818 02:02:12.998549 51282 db_lmdb.cpp:35] Opened lmdb /home/neuroShare/data/ImageNet/ILSVRC2012_data/ilsvrc12_val_lmdb
I0818 02:02:12.998566 51282 net.cpp:84] Creating Layer data
I0818 02:02:12.998574 51282 net.cpp:380] data -> data
I0818 02:02:12.998582 51282 net.cpp:380] data -> label
I0818 02:02:12.998589 51282 data_transformer.cpp:25] Loading mean file from: data/ilsvrc12/imagenet_mean.binaryproto
I0818 02:02:13.000792 51282 data_layer.cpp:45] output data size: 50,3,227,227
I0818 02:02:13.084527 51282 net.cpp:122] Setting up data
I0818 02:02:13.084591 51282 net.cpp:129] Top shape: 50 3 227 227 (7729350)
I0818 02:02:13.084599 51282 net.cpp:129] Top shape: 50 (50)
I0818 02:02:13.084601 51282 net.cpp:137] Memory required for data: 30917600
I0818 02:02:13.084609 51282 layer_factory.hpp:77] Creating layer label_data_1_split
I0818 02:02:13.084630 51282 net.cpp:84] Creating Layer label_data_1_split
I0818 02:02:13.084635 51282 net.cpp:406] label_data_1_split <- label
I0818 02:02:13.084643 51282 net.cpp:380] label_data_1_split -> label_data_1_split_0
I0818 02:02:13.084655 51282 net.cpp:380] label_data_1_split -> label_data_1_split_1
I0818 02:02:13.084801 51282 net.cpp:122] Setting up label_data_1_split
I0818 02:02:13.084810 51282 net.cpp:129] Top shape: 50 (50)
I0818 02:02:13.084815 51282 net.cpp:129] Top shape: 50 (50)
I0818 02:02:13.084816 51282 net.cpp:137] Memory required for data: 30918000
I0818 02:02:13.084820 51282 layer_factory.hpp:77] Creating layer conv1
I0818 02:02:13.084833 51282 net.cpp:84] Creating Layer conv1
I0818 02:02:13.084837 51282 net.cpp:406] conv1 <- data
I0818 02:02:13.084856 51282 net.cpp:380] conv1 -> conv1
I0818 02:02:13.086184 51282 net.cpp:122] Setting up conv1
I0818 02:02:13.086194 51282 net.cpp:129] Top shape: 50 96 109 109 (57028800)
I0818 02:02:13.086196 51282 net.cpp:137] Memory required for data: 259033200
I0818 02:02:13.086205 51282 layer_factory.hpp:77] Creating layer relu1
I0818 02:02:13.086212 51282 net.cpp:84] Creating Layer relu1
I0818 02:02:13.086215 51282 net.cpp:406] relu1 <- conv1
I0818 02:02:13.086220 51282 net.cpp:367] relu1 -> conv1 (in-place)
I0818 02:02:13.086225 51282 net.cpp:122] Setting up relu1
I0818 02:02:13.086230 51282 net.cpp:129] Top shape: 50 96 109 109 (57028800)
I0818 02:02:13.086232 51282 net.cpp:137] Memory required for data: 487148400
I0818 02:02:13.086235 51282 layer_factory.hpp:77] Creating layer pool1
I0818 02:02:13.086241 51282 net.cpp:84] Creating Layer pool1
I0818 02:02:13.086244 51282 net.cpp:406] pool1 <- conv1
I0818 02:02:13.086248 51282 net.cpp:380] pool1 -> pool1
I0818 02:02:13.086282 51282 net.cpp:122] Setting up pool1
I0818 02:02:13.086288 51282 net.cpp:129] Top shape: 50 96 35 35 (5880000)
I0818 02:02:13.086302 51282 net.cpp:137] Memory required for data: 510668400
I0818 02:02:13.086304 51282 layer_factory.hpp:77] Creating layer conv2
I0818 02:02:13.086313 51282 net.cpp:84] Creating Layer conv2
I0818 02:02:13.086316 51282 net.cpp:406] conv2 <- pool1
I0818 02:02:13.086323 51282 net.cpp:380] conv2 -> conv2
I0818 02:02:13.095578 51282 net.cpp:122] Setting up conv2
I0818 02:02:13.095593 51282 net.cpp:129] Top shape: 50 256 35 35 (15680000)
I0818 02:02:13.095597 51282 net.cpp:137] Memory required for data: 573388400
I0818 02:02:13.095605 51282 layer_factory.hpp:77] Creating layer relu2
I0818 02:02:13.095612 51282 net.cpp:84] Creating Layer relu2
I0818 02:02:13.095614 51282 net.cpp:406] relu2 <- conv2
I0818 02:02:13.095619 51282 net.cpp:367] relu2 -> conv2 (in-place)
I0818 02:02:13.095624 51282 net.cpp:122] Setting up relu2
I0818 02:02:13.095628 51282 net.cpp:129] Top shape: 50 256 35 35 (15680000)
I0818 02:02:13.095631 51282 net.cpp:137] Memory required for data: 636108400
I0818 02:02:13.095633 51282 layer_factory.hpp:77] Creating layer norm2
I0818 02:02:13.095639 51282 net.cpp:84] Creating Layer norm2
I0818 02:02:13.095643 51282 net.cpp:406] norm2 <- conv2
I0818 02:02:13.095648 51282 net.cpp:380] norm2 -> norm2
I0818 02:02:13.095679 51282 net.cpp:122] Setting up norm2
I0818 02:02:13.095685 51282 net.cpp:129] Top shape: 50 256 35 35 (15680000)
I0818 02:02:13.095698 51282 net.cpp:137] Memory required for data: 698828400
I0818 02:02:13.095701 51282 layer_factory.hpp:77] Creating layer pool2
I0818 02:02:13.095708 51282 net.cpp:84] Creating Layer pool2
I0818 02:02:13.095711 51282 net.cpp:406] pool2 <- norm2
I0818 02:02:13.095716 51282 net.cpp:380] pool2 -> pool2
I0818 02:02:13.095747 51282 net.cpp:122] Setting up pool2
I0818 02:02:13.095752 51282 net.cpp:129] Top shape: 50 256 17 17 (3699200)
I0818 02:02:13.095755 51282 net.cpp:137] Memory required for data: 713625200
I0818 02:02:13.095773 51282 layer_factory.hpp:77] Creating layer conv3
I0818 02:02:13.095783 51282 net.cpp:84] Creating Layer conv3
I0818 02:02:13.095787 51282 net.cpp:406] conv3 <- pool2
I0818 02:02:13.095793 51282 net.cpp:380] conv3 -> conv3
I0818 02:02:13.121429 51282 net.cpp:122] Setting up conv3
I0818 02:02:13.121441 51282 net.cpp:129] Top shape: 50 384 17 17 (5548800)
I0818 02:02:13.121444 51282 net.cpp:137] Memory required for data: 735820400
I0818 02:02:13.121453 51282 layer_factory.hpp:77] Creating layer relu3
I0818 02:02:13.121457 51282 net.cpp:84] Creating Layer relu3
I0818 02:02:13.121460 51282 net.cpp:406] relu3 <- conv3
I0818 02:02:13.121465 51282 net.cpp:367] relu3 -> conv3 (in-place)
I0818 02:02:13.121471 51282 net.cpp:122] Setting up relu3
I0818 02:02:13.121474 51282 net.cpp:129] Top shape: 50 384 17 17 (5548800)
I0818 02:02:13.121477 51282 net.cpp:137] Memory required for data: 758015600
I0818 02:02:13.121480 51282 layer_factory.hpp:77] Creating layer conv4
I0818 02:02:13.121487 51282 net.cpp:84] Creating Layer conv4
I0818 02:02:13.121490 51282 net.cpp:406] conv4 <- conv3
I0818 02:02:13.121496 51282 net.cpp:380] conv4 -> conv4
I0818 02:02:13.140581 51282 net.cpp:122] Setting up conv4
I0818 02:02:13.140592 51282 net.cpp:129] Top shape: 50 384 17 17 (5548800)
I0818 02:02:13.140595 51282 net.cpp:137] Memory required for data: 780210800
I0818 02:02:13.140600 51282 layer_factory.hpp:77] Creating layer relu4
I0818 02:02:13.140606 51282 net.cpp:84] Creating Layer relu4
I0818 02:02:13.140609 51282 net.cpp:406] relu4 <- conv4
I0818 02:02:13.140614 51282 net.cpp:367] relu4 -> conv4 (in-place)
I0818 02:02:13.140619 51282 net.cpp:122] Setting up relu4
I0818 02:02:13.140624 51282 net.cpp:129] Top shape: 50 384 17 17 (5548800)
I0818 02:02:13.140625 51282 net.cpp:137] Memory required for data: 802406000
I0818 02:02:13.140628 51282 layer_factory.hpp:77] Creating layer conv5
I0818 02:02:13.140636 51282 net.cpp:84] Creating Layer conv5
I0818 02:02:13.140640 51282 net.cpp:406] conv5 <- conv4
I0818 02:02:13.140645 51282 net.cpp:380] conv5 -> conv5
I0818 02:02:13.153414 51282 net.cpp:122] Setting up conv5
I0818 02:02:13.153424 51282 net.cpp:129] Top shape: 50 256 17 17 (3699200)
I0818 02:02:13.153427 51282 net.cpp:137] Memory required for data: 817202800
I0818 02:02:13.153436 51282 layer_factory.hpp:77] Creating layer relu5
I0818 02:02:13.153442 51282 net.cpp:84] Creating Layer relu5
I0818 02:02:13.153445 51282 net.cpp:406] relu5 <- conv5
I0818 02:02:13.153450 51282 net.cpp:367] relu5 -> conv5 (in-place)
I0818 02:02:13.153455 51282 net.cpp:122] Setting up relu5
I0818 02:02:13.153460 51282 net.cpp:129] Top shape: 50 256 17 17 (3699200)
I0818 02:02:13.153461 51282 net.cpp:137] Memory required for data: 831999600
I0818 02:02:13.153463 51282 layer_factory.hpp:77] Creating layer pool5
I0818 02:02:13.153470 51282 net.cpp:84] Creating Layer pool5
I0818 02:02:13.153471 51282 net.cpp:406] pool5 <- conv5
I0818 02:02:13.153475 51282 net.cpp:380] pool5 -> pool5
I0818 02:02:13.153506 51282 net.cpp:122] Setting up pool5
I0818 02:02:13.153512 51282 net.cpp:129] Top shape: 50 256 8 8 (819200)
I0818 02:02:13.153527 51282 net.cpp:137] Memory required for data: 835276400
I0818 02:02:13.153529 51282 layer_factory.hpp:77] Creating layer fc6
I0818 02:02:13.153539 51282 net.cpp:84] Creating Layer fc6
I0818 02:02:13.153542 51282 net.cpp:406] fc6 <- pool5
I0818 02:02:13.153548 51282 net.cpp:380] fc6 -> fc6
I0818 02:02:15.099303 51282 net.cpp:122] Setting up fc6
I0818 02:02:15.099337 51282 net.cpp:129] Top shape: 50 4096 (204800)
I0818 02:02:15.099341 51282 net.cpp:137] Memory required for data: 836095600
I0818 02:02:15.099354 51282 layer_factory.hpp:77] Creating layer relu6
I0818 02:02:15.099370 51282 net.cpp:84] Creating Layer relu6
I0818 02:02:15.099376 51282 net.cpp:406] relu6 <- fc6
I0818 02:02:15.099386 51282 net.cpp:367] relu6 -> fc6 (in-place)
I0818 02:02:15.099397 51282 net.cpp:122] Setting up relu6
I0818 02:02:15.099401 51282 net.cpp:129] Top shape: 50 4096 (204800)
I0818 02:02:15.099405 51282 net.cpp:137] Memory required for data: 836914800
I0818 02:02:15.099436 51282 layer_factory.hpp:77] Creating layer drop6
I0818 02:02:15.099458 51282 net.cpp:84] Creating Layer drop6
I0818 02:02:15.099462 51282 net.cpp:406] drop6 <- fc6
I0818 02:02:15.099467 51282 net.cpp:367] drop6 -> fc6 (in-place)
I0818 02:02:15.099504 51282 net.cpp:122] Setting up drop6
I0818 02:02:15.099509 51282 net.cpp:129] Top shape: 50 4096 (204800)
I0818 02:02:15.099512 51282 net.cpp:137] Memory required for data: 837734000
I0818 02:02:15.099515 51282 layer_factory.hpp:77] Creating layer fc7
I0818 02:02:15.099525 51282 net.cpp:84] Creating Layer fc7
I0818 02:02:15.099532 51282 net.cpp:406] fc7 <- fc6
I0818 02:02:15.099539 51282 net.cpp:380] fc7 -> fc7
I0818 02:02:15.603351 51282 net.cpp:122] Setting up fc7
I0818 02:02:15.603391 51282 net.cpp:129] Top shape: 50 4096 (204800)
I0818 02:02:15.603395 51282 net.cpp:137] Memory required for data: 838553200
I0818 02:02:15.603410 51282 layer_factory.hpp:77] Creating layer relu7
I0818 02:02:15.603426 51282 net.cpp:84] Creating Layer relu7
I0818 02:02:15.603433 51282 net.cpp:406] relu7 <- fc7
I0818 02:02:15.603443 51282 net.cpp:367] relu7 -> fc7 (in-place)
I0818 02:02:15.603456 51282 net.cpp:122] Setting up relu7
I0818 02:02:15.603461 51282 net.cpp:129] Top shape: 50 4096 (204800)
I0818 02:02:15.603462 51282 net.cpp:137] Memory required for data: 839372400
I0818 02:02:15.603466 51282 layer_factory.hpp:77] Creating layer drop7
I0818 02:02:15.603476 51282 net.cpp:84] Creating Layer drop7
I0818 02:02:15.603478 51282 net.cpp:406] drop7 <- fc7
I0818 02:02:15.603482 51282 net.cpp:367] drop7 -> fc7 (in-place)
I0818 02:02:15.603518 51282 net.cpp:122] Setting up drop7
I0818 02:02:15.603525 51282 net.cpp:129] Top shape: 50 4096 (204800)
I0818 02:02:15.603528 51282 net.cpp:137] Memory required for data: 840191600
I0818 02:02:15.603531 51282 layer_factory.hpp:77] Creating layer fc8
I0818 02:02:15.603541 51282 net.cpp:84] Creating Layer fc8
I0818 02:02:15.603545 51282 net.cpp:406] fc8 <- fc7
I0818 02:02:15.603562 51282 net.cpp:380] fc8 -> fc8
I0818 02:02:15.725890 51282 net.cpp:122] Setting up fc8
I0818 02:02:15.725920 51282 net.cpp:129] Top shape: 50 1000 (50000)
I0818 02:02:15.725924 51282 net.cpp:137] Memory required for data: 840391600
I0818 02:02:15.725932 51282 layer_factory.hpp:77] Creating layer fc8_fc8_0_split
I0818 02:02:15.725944 51282 net.cpp:84] Creating Layer fc8_fc8_0_split
I0818 02:02:15.725950 51282 net.cpp:406] fc8_fc8_0_split <- fc8
I0818 02:02:15.725957 51282 net.cpp:380] fc8_fc8_0_split -> fc8_fc8_0_split_0
I0818 02:02:15.725975 51282 net.cpp:380] fc8_fc8_0_split -> fc8_fc8_0_split_1
I0818 02:02:15.726011 51282 net.cpp:122] Setting up fc8_fc8_0_split
I0818 02:02:15.726029 51282 net.cpp:129] Top shape: 50 1000 (50000)
I0818 02:02:15.726033 51282 net.cpp:129] Top shape: 50 1000 (50000)
I0818 02:02:15.726037 51282 net.cpp:137] Memory required for data: 840791600
I0818 02:02:15.726039 51282 layer_factory.hpp:77] Creating layer accuracy
I0818 02:02:15.726055 51282 net.cpp:84] Creating Layer accuracy
I0818 02:02:15.726059 51282 net.cpp:406] accuracy <- fc8_fc8_0_split_0
I0818 02:02:15.726063 51282 net.cpp:406] accuracy <- label_data_1_split_0
I0818 02:02:15.726068 51282 net.cpp:380] accuracy -> accuracy
…
