…
I0821 16:39:24.773334 66063 net.cpp:294] The NetState phase (0) differed from the phase (1) specified by a rule in layer accuracy
I0821 16:39:24.773562 66063 net.cpp:51] Initializing net from parameters: 
name: "AlexNet"
state {
  phase: TRAIN
  level: 0
  stage: ""
}
layer {
  name: "data"
  type: "Data"
  top: "data"
  top: "label"
  include {
    phase: TRAIN
  }
  transform_param {
    mirror: true
    crop_size: 227
    mean_file: "data/ilsvrc12/imagenet_mean.binaryproto"
  }
  data_param {
    source: "/home/neuroShare/data/ImageNet/ILSVRC2012_data/ilsvrc12_train_lmdb"
    batch_size: 256
    backend: LMDB
  }
}
layer {
  name: "conv1"
  type: "Convolution"
  bottom: "data"
  top: "conv1"
  param {
    lr_mult: 1
    decay_mult: 1
  }
  param {
    lr_mult: 2
    decay_mult: 0
  }
  convolution_param {
    num_output: 96
    kernel_size: 11
    stride: 2
    weight_filler {
      type: "gaussian"
      std: 0.01
    }
    bias_filler {
      type: "constant"
      value: 0
    }
  }
}
layer {
  name: "relu1"
  type: "ReLU"
  bottom: "conv1"
  top: "conv1"
}
layer {
  name: "pool1"
  type: "Pooling"
  bottom: "conv1"
  top: "pool1"
  pooling_param {
    pool: MAX
    kernel_size: 7
    stride: 3
  }
}
layer {
  name: "conv2"
  type: "Convolution"
  bottom: "pool1"
  top: "conv2"
  param {
    lr_mult: 1
    decay_mult: 1
  }
  param {
    lr_mult: 2
    decay_mult: 0
  }
  convolution_param {
    num_output: 256
    pad: 2
    kernel_size: 5
    group: 2
    weight_filler {
      type: "gaussian"
      std: 0.01
    }
    bias_filler {
      type: "constant"
      value: 0.1
    }
  }
}
layer {
  name: "relu2"
  type: "ReLU"
  bottom: "conv2"
  top: "conv2"
}
layer {
  name: "norm2"
  type: "LRN"
  bottom: "conv2"
  top: "norm2"
  lrn_param {
    local_size: 5
    alpha: 0.0001
    beta: 0.75
  }
}
layer {
  name: "pool2"
  type: "Pooling"
  bottom: "norm2"
  top: "pool2"
  pooling_param {
    pool: MAX
    kernel_size: 3
    stride: 2
  }
}
layer {
  name: "conv3"
  type: "Convolution"
  bottom: "pool2"
  top: "conv3"
  param {
    lr_mult: 1
    decay_mult: 1
  }
  param {
    lr_mult: 2
    decay_mult: 0
  }
  convolution_param {
    num_output: 384
    pad: 1
    kernel_size: 3
    weight_filler {
      type: "gaussian"
      std: 0.01
    }
    bias_filler {
      type: "constant"
      value: 0
    }
  }
}
layer {
  name: "relu3"
  type: "ReLU"
  bottom: "conv3"
  top: "conv3"
}
layer {
  name: "conv4"
  type: "Convolution"
  bottom: "conv3"
  top: "conv4"
  param {
    lr_mult: 1
    decay_mult: 1
  }
  param {
    lr_mult: 2
    decay_mult: 0
  }
  convolution_param {
    num_output: 384
    pad: 1
    kernel_size: 3
    group: 2
    weight_filler {
      type: "gaussian"
      std: 0.01
    }
    bias_filler {
      type: "constant"
      value: 0.1
    }
  }
}
layer {
  name: "relu4"
  type: "ReLU"
  bottom: "conv4"
  top: "conv4"
}
layer {
  name: "conv5"
  type: "Convolution"
  bottom: "conv4"
  top: "conv5"
  param {
    lr_mult: 1
    decay_mult: 1
  }
  param {
    lr_mult: 2
    decay_mult: 0
  }
  convolution_param {
    num_output: 256
    pad: 1
    kernel_size: 3
    group: 2
    weight_filler {
      type: "gaussian"
      std: 0.01
    }
    bias_filler {
      type: "constant"
      value: 0.1
    }
  }
}
layer {
  name: "relu5"
  type: "ReLU"
  bottom: "conv5"
  top: "conv5"
}
layer {
  name: "pool5"
  type: "Pooling"
  bottom: "conv5"
  top: "pool5"
  pooling_param {
    pool: MAX
    kernel_size: 3
    stride: 2
  }
}
layer {
  name: "fc6"
  type: "InnerProduct"
  bottom: "pool5"
  top: "fc6"
  param {
    lr_mult: 1
    decay_mult: 1
  }
  param {
    lr_mult: 2
    decay_mult: 0
  }
  inner_product_param {
    num_output: 4096
    weight_filler {
      type: "gaussian"
      std: 0.005
    }
    bias_filler {
      type: "constant"
      value: 0.1
    }
  }
}
layer {
  name: "relu6"
  type: "ReLU"
  bottom: "fc6"
  top: "fc6"
}
layer {
  name: "drop6"
  type: "Dropout"
  bottom: "fc6"
  top: "fc6"
  dropout_param {
    dropout_ratio: 0.5
  }
}
layer {
  name: "fc7"
  type: "InnerProduct"
  bottom: "fc6"
  top: "fc7"
  param {
    lr_mult: 1
    decay_mult: 1
  }
  param {
    lr_mult: 2
    decay_mult: 0
  }
  inner_product_param {
    num_output: 4096
    weight_filler {
      type: "gaussian"
      std: 0.005
    }
    bias_filler {
      type: "constant"
      value: 0.1
    }
  }
}
layer {
  name: "relu7"
  type: "ReLU"
  bottom: "fc7"
  top: "fc7"
}
layer {
  name: "drop7"
  type: "Dropout"
  bottom: "fc7"
  top: "fc7"
  dropout_param {
    dropout_ratio: 0.5
  }
}
layer {
  name: "fc8"
  type: "InnerProduct"
  bottom: "fc7"
  top: "fc8"
  param {
    lr_mult: 1
    decay_mult: 1
  }
  param {
    lr_mult: 2
    decay_mult: 0
  }
  inner_product_param {
    num_output: 1000
    weight_filler {
      type: "gaussian"
      std: 0.01
    }
    bias_filler {
      type: "constant"
      value: 0
    }
  }
}
layer {
  name: "loss"
  type: "SoftmaxWithLoss"
  bottom: "fc8"
  bottom: "label"
  top: "loss"
}
I0821 16:39:24.773733 66063 layer_factory.hpp:77] Creating layer data
I0821 16:39:24.773859 66063 db_lmdb.cpp:35] Opened lmdb /home/neuroShare/data/ImageNet/ILSVRC2012_data/ilsvrc12_train_lmdb
I0821 16:39:24.773916 66063 net.cpp:84] Creating Layer data
I0821 16:39:24.773928 66063 net.cpp:380] data -> data
I0821 16:39:24.773963 66063 net.cpp:380] data -> label
I0821 16:39:24.773983 66063 data_transformer.cpp:25] Loading mean file from: data/ilsvrc12/imagenet_mean.binaryproto
I0821 16:39:24.778724 66063 data_layer.cpp:45] output data size: 256,3,227,227
I0821 16:39:26.146378 66063 net.cpp:122] Setting up data
I0821 16:39:26.146513 66063 net.cpp:129] Top shape: 256 3 227 227 (39574272)
I0821 16:39:26.146522 66063 net.cpp:129] Top shape: 256 (256)
I0821 16:39:26.146525 66063 net.cpp:137] Memory required for data: 158298112
I0821 16:39:26.146564 66063 layer_factory.hpp:77] Creating layer conv1
I0821 16:39:26.146694 66063 net.cpp:84] Creating Layer conv1
I0821 16:39:26.146704 66063 net.cpp:406] conv1 <- data
I0821 16:39:26.146731 66063 net.cpp:380] conv1 -> conv1
I0821 16:39:26.180585 66063 net.cpp:122] Setting up conv1
I0821 16:39:26.180613 66063 net.cpp:129] Top shape: 256 96 109 109 (291987456)
I0821 16:39:26.180616 66063 net.cpp:137] Memory required for data: 1326247936
I0821 16:39:26.180642 66063 layer_factory.hpp:77] Creating layer relu1
I0821 16:39:26.180675 66063 net.cpp:84] Creating Layer relu1
I0821 16:39:26.180711 66063 net.cpp:406] relu1 <- conv1
I0821 16:39:26.180718 66063 net.cpp:367] relu1 -> conv1 (in-place)
I0821 16:39:26.180729 66063 net.cpp:122] Setting up relu1
I0821 16:39:26.180734 66063 net.cpp:129] Top shape: 256 96 109 109 (291987456)
I0821 16:39:26.180738 66063 net.cpp:137] Memory required for data: 2494197760
I0821 16:39:26.180742 66063 layer_factory.hpp:77] Creating layer pool1
I0821 16:39:26.180757 66063 net.cpp:84] Creating Layer pool1
I0821 16:39:26.180761 66063 net.cpp:406] pool1 <- conv1
I0821 16:39:26.180773 66063 net.cpp:380] pool1 -> pool1
I0821 16:39:26.180833 66063 net.cpp:122] Setting up pool1
I0821 16:39:26.180841 66063 net.cpp:129] Top shape: 256 96 35 35 (30105600)
I0821 16:39:26.180846 66063 net.cpp:137] Memory required for data: 2614620160
I0821 16:39:26.180850 66063 layer_factory.hpp:77] Creating layer conv2
I0821 16:39:26.180867 66063 net.cpp:84] Creating Layer conv2
I0821 16:39:26.180872 66063 net.cpp:406] conv2 <- pool1
I0821 16:39:26.180913 66063 net.cpp:380] conv2 -> conv2
I0821 16:39:26.190621 66063 net.cpp:122] Setting up conv2
I0821 16:39:26.190651 66063 net.cpp:129] Top shape: 256 256 35 35 (80281600)
I0821 16:39:26.190655 66063 net.cpp:137] Memory required for data: 2935746560
I0821 16:39:26.190665 66063 layer_factory.hpp:77] Creating layer relu2
I0821 16:39:26.190670 66063 net.cpp:84] Creating Layer relu2
I0821 16:39:26.190675 66063 net.cpp:406] relu2 <- conv2
I0821 16:39:26.190678 66063 net.cpp:367] relu2 -> conv2 (in-place)
I0821 16:39:26.190685 66063 net.cpp:122] Setting up relu2
I0821 16:39:26.190690 66063 net.cpp:129] Top shape: 256 256 35 35 (80281600)
I0821 16:39:26.190693 66063 net.cpp:137] Memory required for data: 3256872960
I0821 16:39:26.190696 66063 layer_factory.hpp:77] Creating layer norm2
I0821 16:39:26.190716 66063 net.cpp:84] Creating Layer norm2
I0821 16:39:26.190733 66063 net.cpp:406] norm2 <- conv2
I0821 16:39:26.190739 66063 net.cpp:380] norm2 -> norm2
I0821 16:39:26.190809 66063 net.cpp:122] Setting up norm2
I0821 16:39:26.190817 66063 net.cpp:129] Top shape: 256 256 35 35 (80281600)
I0821 16:39:26.190821 66063 net.cpp:137] Memory required for data: 3577999360
I0821 16:39:26.190825 66063 layer_factory.hpp:77] Creating layer pool2
I0821 16:39:26.190831 66063 net.cpp:84] Creating Layer pool2
I0821 16:39:26.190834 66063 net.cpp:406] pool2 <- norm2
I0821 16:39:26.190846 66063 net.cpp:380] pool2 -> pool2
I0821 16:39:26.190884 66063 net.cpp:122] Setting up pool2
I0821 16:39:26.190898 66063 net.cpp:129] Top shape: 256 256 17 17 (18939904)
I0821 16:39:26.190902 66063 net.cpp:137] Memory required for data: 3653758976
I0821 16:39:26.190912 66063 layer_factory.hpp:77] Creating layer conv3
I0821 16:39:26.190928 66063 net.cpp:84] Creating Layer conv3
I0821 16:39:26.190934 66063 net.cpp:406] conv3 <- pool2
I0821 16:39:26.190940 66063 net.cpp:380] conv3 -> conv3
I0821 16:39:26.219283 66063 net.cpp:122] Setting up conv3
I0821 16:39:26.219297 66063 net.cpp:129] Top shape: 256 384 17 17 (28409856)
I0821 16:39:26.219312 66063 net.cpp:137] Memory required for data: 3767398400
I0821 16:39:26.219328 66063 layer_factory.hpp:77] Creating layer relu3
I0821 16:39:26.219341 66063 net.cpp:84] Creating Layer relu3
I0821 16:39:26.219346 66063 net.cpp:406] relu3 <- conv3
I0821 16:39:26.219352 66063 net.cpp:367] relu3 -> conv3 (in-place)
I0821 16:39:26.219357 66063 net.cpp:122] Setting up relu3
I0821 16:39:26.219362 66063 net.cpp:129] Top shape: 256 384 17 17 (28409856)
I0821 16:39:26.219365 66063 net.cpp:137] Memory required for data: 3881037824
I0821 16:39:26.219368 66063 layer_factory.hpp:77] Creating layer conv4
I0821 16:39:26.219375 66063 net.cpp:84] Creating Layer conv4
I0821 16:39:26.219378 66063 net.cpp:406] conv4 <- conv3
I0821 16:39:26.219391 66063 net.cpp:380] conv4 -> conv4
I0821 16:39:26.241206 66063 net.cpp:122] Setting up conv4
I0821 16:39:26.241220 66063 net.cpp:129] Top shape: 256 384 17 17 (28409856)
I0821 16:39:26.241225 66063 net.cpp:137] Memory required for data: 3994677248
I0821 16:39:26.241230 66063 layer_factory.hpp:77] Creating layer relu4
I0821 16:39:26.241258 66063 net.cpp:84] Creating Layer relu4
I0821 16:39:26.241271 66063 net.cpp:406] relu4 <- conv4
I0821 16:39:26.241276 66063 net.cpp:367] relu4 -> conv4 (in-place)
I0821 16:39:26.241284 66063 net.cpp:122] Setting up relu4
I0821 16:39:26.241302 66063 net.cpp:129] Top shape: 256 384 17 17 (28409856)
I0821 16:39:26.241304 66063 net.cpp:137] Memory required for data: 4108316672
I0821 16:39:26.241307 66063 layer_factory.hpp:77] Creating layer conv5
I0821 16:39:26.241329 66063 net.cpp:84] Creating Layer conv5
I0821 16:39:26.241333 66063 net.cpp:406] conv5 <- conv4
I0821 16:39:26.241339 66063 net.cpp:380] conv5 -> conv5
I0821 16:39:26.255501 66063 net.cpp:122] Setting up conv5
I0821 16:39:26.255513 66063 net.cpp:129] Top shape: 256 256 17 17 (18939904)
I0821 16:39:26.255528 66063 net.cpp:137] Memory required for data: 4184076288
I0821 16:39:26.255545 66063 layer_factory.hpp:77] Creating layer relu5
I0821 16:39:26.255551 66063 net.cpp:84] Creating Layer relu5
I0821 16:39:26.255574 66063 net.cpp:406] relu5 <- conv5
I0821 16:39:26.255580 66063 net.cpp:367] relu5 -> conv5 (in-place)
I0821 16:39:26.255586 66063 net.cpp:122] Setting up relu5
I0821 16:39:26.255591 66063 net.cpp:129] Top shape: 256 256 17 17 (18939904)
I0821 16:39:26.255594 66063 net.cpp:137] Memory required for data: 4259835904
I0821 16:39:26.255596 66063 layer_factory.hpp:77] Creating layer pool5
I0821 16:39:26.255601 66063 net.cpp:84] Creating Layer pool5
I0821 16:39:26.255604 66063 net.cpp:406] pool5 <- conv5
I0821 16:39:26.255609 66063 net.cpp:380] pool5 -> pool5
I0821 16:39:26.255668 66063 net.cpp:122] Setting up pool5
I0821 16:39:26.255676 66063 net.cpp:129] Top shape: 256 256 8 8 (4194304)
I0821 16:39:26.255679 66063 net.cpp:137] Memory required for data: 4276613120
I0821 16:39:26.255681 66063 layer_factory.hpp:77] Creating layer fc6
I0821 16:39:26.255717 66063 net.cpp:84] Creating Layer fc6
I0821 16:39:26.255722 66063 net.cpp:406] fc6 <- pool5
I0821 16:39:26.255733 66063 net.cpp:380] fc6 -> fc6
I0821 16:39:28.644219 66063 net.cpp:122] Setting up fc6
I0821 16:39:28.644260 66063 net.cpp:129] Top shape: 256 4096 (1048576)
I0821 16:39:28.644266 66063 net.cpp:137] Memory required for data: 4280807424
I0821 16:39:28.644284 66063 layer_factory.hpp:77] Creating layer relu6
I0821 16:39:28.644322 66063 net.cpp:84] Creating Layer relu6
I0821 16:39:28.644331 66063 net.cpp:406] relu6 <- fc6
I0821 16:39:28.644356 66063 net.cpp:367] relu6 -> fc6 (in-place)
I0821 16:39:28.644371 66063 net.cpp:122] Setting up relu6
I0821 16:39:28.644379 66063 net.cpp:129] Top shape: 256 4096 (1048576)
I0821 16:39:28.644384 66063 net.cpp:137] Memory required for data: 4285001728
I0821 16:39:28.644389 66063 layer_factory.hpp:77] Creating layer drop6
I0821 16:39:28.644402 66063 net.cpp:84] Creating Layer drop6
I0821 16:39:28.644417 66063 net.cpp:406] drop6 <- fc6
I0821 16:39:28.644424 66063 net.cpp:367] drop6 -> fc6 (in-place)
I0821 16:39:28.644460 66063 net.cpp:122] Setting up drop6
I0821 16:39:28.644469 66063 net.cpp:129] Top shape: 256 4096 (1048576)
I0821 16:39:28.644474 66063 net.cpp:137] Memory required for data: 4289196032
I0821 16:39:28.644479 66063 layer_factory.hpp:77] Creating layer fc7
I0821 16:39:28.644503 66063 net.cpp:84] Creating Layer fc7
I0821 16:39:28.644512 66063 net.cpp:406] fc7 <- fc6
I0821 16:39:28.644521 66063 net.cpp:380] fc7 -> fc7
I0821 16:39:29.338855 66063 net.cpp:122] Setting up fc7
I0821 16:39:29.338915 66063 net.cpp:129] Top shape: 256 4096 (1048576)
I0821 16:39:29.338924 66063 net.cpp:137] Memory required for data: 4293390336
I0821 16:39:29.338946 66063 layer_factory.hpp:77] Creating layer relu7
I0821 16:39:29.338969 66063 net.cpp:84] Creating Layer relu7
I0821 16:39:29.338979 66063 net.cpp:406] relu7 <- fc7
I0821 16:39:29.339006 66063 net.cpp:367] relu7 -> fc7 (in-place)
I0821 16:39:29.339033 66063 net.cpp:122] Setting up relu7
I0821 16:39:29.339042 66063 net.cpp:129] Top shape: 256 4096 (1048576)
I0821 16:39:29.339047 66063 net.cpp:137] Memory required for data: 4297584640
I0821 16:39:29.339052 66063 layer_factory.hpp:77] Creating layer drop7
I0821 16:39:29.339066 66063 net.cpp:84] Creating Layer drop7
I0821 16:39:29.339073 66063 net.cpp:406] drop7 <- fc7
I0821 16:39:29.339104 66063 net.cpp:367] drop7 -> fc7 (in-place)
I0821 16:39:29.339151 66063 net.cpp:122] Setting up drop7
I0821 16:39:29.339165 66063 net.cpp:129] Top shape: 256 4096 (1048576)
I0821 16:39:29.339171 66063 net.cpp:137] Memory required for data: 4301778944
I0821 16:39:29.339177 66063 layer_factory.hpp:77] Creating layer fc8
I0821 16:39:29.339203 66063 net.cpp:84] Creating Layer fc8
I0821 16:39:29.339212 66063 net.cpp:406] fc8 <- fc7
I0821 16:39:29.339223 66063 net.cpp:380] fc8 -> fc8
I0821 16:39:29.502557 66063 net.cpp:122] Setting up fc8
I0821 16:39:29.502594 66063 net.cpp:129] Top shape: 256 1000 (256000)
I0821 16:39:29.502600 66063 net.cpp:137] Memory required for data: 4302802944
I0821 16:39:29.502614 66063 layer_factory.hpp:77] Creating layer loss
I0821 16:39:29.502650 66063 net.cpp:84] Creating Layer loss
I0821 16:39:29.502660 66063 net.cpp:406] loss <- fc8
I0821 16:39:29.502715 66063 net.cpp:406] loss <- label
I0821 16:39:29.502748 66063 net.cpp:380] loss -> loss
I0821 16:39:29.502804 66063 layer_factory.hpp:77] Creating layer loss
…
I0821 16:39:29.506314 66063 net.cpp:294] The NetState phase (1) differed from the phase (0) specified by a rule in layer data
I0821 16:39:29.506742 66063 net.cpp:51] Initializing net from parameters: 
name: "AlexNet"
state {
  phase: TEST
}
layer {
  name: "data"
  type: "Data"
  top: "data"
  top: "label"
  include {
    phase: TEST
  }
  transform_param {
    mirror: false
    crop_size: 227
    mean_file: "data/ilsvrc12/imagenet_mean.binaryproto"
  }
  data_param {
    source: "/home/neuroShare/data/ImageNet/ILSVRC2012_data/ilsvrc12_val_lmdb"
    batch_size: 50
    backend: LMDB
  }
}
layer {
  name: "conv1"
  type: "Convolution"
  bottom: "data"
  top: "conv1"
  param {
    lr_mult: 1
    decay_mult: 1
  }
  param {
    lr_mult: 2
    decay_mult: 0
  }
  convolution_param {
    num_output: 96
    kernel_size: 11
    stride: 2
    weight_filler {
      type: "gaussian"
      std: 0.01
    }
    bias_filler {
      type: "constant"
      value: 0
    }
  }
}
layer {
  name: "relu1"
  type: "ReLU"
  bottom: "conv1"
  top: "conv1"
}
layer {
  name: "pool1"
  type: "Pooling"
  bottom: "conv1"
  top: "pool1"
  pooling_param {
    pool: MAX
    kernel_size: 7
    stride: 3
  }
}
layer {
  name: "conv2"
  type: "Convolution"
  bottom: "pool1"
  top: "conv2"
  param {
    lr_mult: 1
    decay_mult: 1
  }
  param {
    lr_mult: 2
    decay_mult: 0
  }
  convolution_param {
    num_output: 256
    pad: 2
    kernel_size: 5
    group: 2
    weight_filler {
      type: "gaussian"
      std: 0.01
    }
    bias_filler {
      type: "constant"
      value: 0.1
    }
  }
}
layer {
  name: "relu2"
  type: "ReLU"
  bottom: "conv2"
  top: "conv2"
}
layer {
  name: "norm2"
  type: "LRN"
  bottom: "conv2"
  top: "norm2"
  lrn_param {
    local_size: 5
    alpha: 0.0001
    beta: 0.75
  }
}
layer {
  name: "pool2"
  type: "Pooling"
  bottom: "norm2"
  top: "pool2"
  pooling_param {
    pool: MAX
    kernel_size: 3
    stride: 2
  }
}
layer {
  name: "conv3"
  type: "Convolution"
  bottom: "pool2"
  top: "conv3"
  param {
    lr_mult: 1
    decay_mult: 1
  }
  param {
    lr_mult: 2
    decay_mult: 0
  }
  convolution_param {
    num_output: 384
    pad: 1
    kernel_size: 3
    weight_filler {
      type: "gaussian"
      std: 0.01
    }
    bias_filler {
      type: "constant"
      value: 0
    }
  }
}
layer {
  name: "relu3"
  type: "ReLU"
  bottom: "conv3"
  top: "conv3"
}
layer {
  name: "conv4"
  type: "Convolution"
  bottom: "conv3"
  top: "conv4"
  param {
    lr_mult: 1
    decay_mult: 1
  }
  param {
    lr_mult: 2
    decay_mult: 0
  }
  convolution_param {
    num_output: 384
    pad: 1
    kernel_size: 3
    group: 2
    weight_filler {
      type: "gaussian"
      std: 0.01
    }
    bias_filler {
      type: "constant"
      value: 0.1
    }
  }
}
layer {
  name: "relu4"
  type: "ReLU"
  bottom: "conv4"
  top: "conv4"
}
layer {
  name: "conv5"
  type: "Convolution"
  bottom: "conv4"
  top: "conv5"
  param {
    lr_mult: 1
    decay_mult: 1
  }
  param {
    lr_mult: 2
    decay_mult: 0
  }
  convolution_param {
    num_output: 256
    pad: 1
    kernel_size: 3
    group: 2
    weight_filler {
      type: "gaussian"
      std: 0.01
    }
    bias_filler {
      type: "constant"
      value: 0.1
    }
  }
}
layer {
  name: "relu5"
  type: "ReLU"
  bottom: "conv5"
  top: "conv5"
}
layer {
  name: "pool5"
  type: "Pooling"
  bottom: "conv5"
  top: "pool5"
  pooling_param {
    pool: MAX
    kernel_size: 3
    stride: 2
  }
}
layer {
  name: "fc6"
  type: "InnerProduct"
  bottom: "pool5"
  top: "fc6"
  param {
    lr_mult: 1
    decay_mult: 1
  }
  param {
    lr_mult: 2
    decay_mult: 0
  }
  inner_product_param {
    num_output: 4096
    weight_filler {
      type: "gaussian"
      std: 0.005
    }
    bias_filler {
      type: "constant"
      value: 0.1
    }
  }
}
layer {
  name: "relu6"
  type: "ReLU"
  bottom: "fc6"
  top: "fc6"
}
layer {
  name: "drop6"
  type: "Dropout"
  bottom: "fc6"
  top: "fc6"
  dropout_param {
    dropout_ratio: 0.5
  }
}
layer {
  name: "fc7"
  type: "InnerProduct"
  bottom: "fc6"
  top: "fc7"
  param {
    lr_mult: 1
    decay_mult: 1
  }
  param {
    lr_mult: 2
    decay_mult: 0
  }
  inner_product_param {
    num_output: 4096
    weight_filler {
      type: "gaussian"
      std: 0.005
    }
    bias_filler {
      type: "constant"
      value: 0.1
    }
  }
}
layer {
  name: "relu7"
  type: "ReLU"
  bottom: "fc7"
  top: "fc7"
}
layer {
  name: "drop7"
  type: "Dropout"
  bottom: "fc7"
  top: "fc7"
  dropout_param {
    dropout_ratio: 0.5
  }
}
layer {
  name: "fc8"
  type: "InnerProduct"
  bottom: "fc7"
  top: "fc8"
  param {
    lr_mult: 1
    decay_mult: 1
  }
  param {
    lr_mult: 2
    decay_mult: 0
  }
  inner_product_param {
    num_output: 1000
    weight_filler {
      type: "gaussian"
      std: 0.01
    }
    bias_filler {
      type: "constant"
      value: 0
    }
  }
}
layer {
  name: "accuracy"
  type: "Accuracy"
  bottom: "fc8"
  bottom: "label"
  top: "accuracy"
  include {
    phase: TEST
  }
}
layer {
  name: "loss"
  type: "SoftmaxWithLoss"
  bottom: "fc8"
  bottom: "label"
  top: "loss"
}
I0821 16:39:29.506992 66063 layer_factory.hpp:77] Creating layer data
I0821 16:39:29.507091 66063 db_lmdb.cpp:35] Opened lmdb /home/neuroShare/data/ImageNet/ILSVRC2012_data/ilsvrc12_val_lmdb
I0821 16:39:29.507143 66063 net.cpp:84] Creating Layer data
I0821 16:39:29.507154 66063 net.cpp:380] data -> data
I0821 16:39:29.507169 66063 net.cpp:380] data -> label
I0821 16:39:29.507182 66063 data_transformer.cpp:25] Loading mean file from: data/ilsvrc12/imagenet_mean.binaryproto
I0821 16:39:29.512137 66063 data_layer.cpp:45] output data size: 50,3,227,227
I0821 16:39:29.760427 66063 net.cpp:122] Setting up data
I0821 16:39:29.760566 66063 net.cpp:129] Top shape: 50 3 227 227 (7729350)
I0821 16:39:29.760578 66063 net.cpp:129] Top shape: 50 (50)
I0821 16:39:29.760586 66063 net.cpp:137] Memory required for data: 30917600
I0821 16:39:29.760601 66063 layer_factory.hpp:77] Creating layer label_data_1_split
I0821 16:39:29.760643 66063 net.cpp:84] Creating Layer label_data_1_split
I0821 16:39:29.760659 66063 net.cpp:406] label_data_1_split <- label
I0821 16:39:29.760692 66063 net.cpp:380] label_data_1_split -> label_data_1_split_0
I0821 16:39:29.760720 66063 net.cpp:380] label_data_1_split -> label_data_1_split_1
I0821 16:39:29.760937 66063 net.cpp:122] Setting up label_data_1_split
I0821 16:39:29.760964 66063 net.cpp:129] Top shape: 50 (50)
I0821 16:39:29.760980 66063 net.cpp:129] Top shape: 50 (50)
I0821 16:39:29.760993 66063 net.cpp:137] Memory required for data: 30918000
I0821 16:39:29.761006 66063 layer_factory.hpp:77] Creating layer conv1
I0821 16:39:29.761049 66063 net.cpp:84] Creating Layer conv1
I0821 16:39:29.761065 66063 net.cpp:406] conv1 <- data
I0821 16:39:29.761085 66063 net.cpp:380] conv1 -> conv1
I0821 16:39:29.769088 66063 net.cpp:122] Setting up conv1
I0821 16:39:29.769137 66063 net.cpp:129] Top shape: 50 96 109 109 (57028800)
I0821 16:39:29.769145 66063 net.cpp:137] Memory required for data: 259033200
I0821 16:39:29.769165 66063 layer_factory.hpp:77] Creating layer relu1
I0821 16:39:29.769183 66063 net.cpp:84] Creating Layer relu1
I0821 16:39:29.769196 66063 net.cpp:406] relu1 <- conv1
I0821 16:39:29.769222 66063 net.cpp:367] relu1 -> conv1 (in-place)
I0821 16:39:29.769242 66063 net.cpp:122] Setting up relu1
I0821 16:39:29.769258 66063 net.cpp:129] Top shape: 50 96 109 109 (57028800)
I0821 16:39:29.769271 66063 net.cpp:137] Memory required for data: 487148400
I0821 16:39:29.769281 66063 layer_factory.hpp:77] Creating layer pool1
I0821 16:39:29.769307 66063 net.cpp:84] Creating Layer pool1
I0821 16:39:29.769320 66063 net.cpp:406] pool1 <- conv1
I0821 16:39:29.769340 66063 net.cpp:380] pool1 -> pool1
I0821 16:39:29.769451 66063 net.cpp:122] Setting up pool1
I0821 16:39:29.769474 66063 net.cpp:129] Top shape: 50 96 35 35 (5880000)
I0821 16:39:29.769486 66063 net.cpp:137] Memory required for data: 510668400
I0821 16:39:29.769500 66063 layer_factory.hpp:77] Creating layer conv2
I0821 16:39:29.769531 66063 net.cpp:84] Creating Layer conv2
I0821 16:39:29.769544 66063 net.cpp:406] conv2 <- pool1
I0821 16:39:29.769567 66063 net.cpp:380] conv2 -> conv2
I0821 16:39:29.789335 66063 net.cpp:122] Setting up conv2
I0821 16:39:29.789371 66063 net.cpp:129] Top shape: 50 256 35 35 (15680000)
I0821 16:39:29.789377 66063 net.cpp:137] Memory required for data: 573388400
I0821 16:39:29.789397 66063 layer_factory.hpp:77] Creating layer relu2
I0821 16:39:29.789412 66063 net.cpp:84] Creating Layer relu2
I0821 16:39:29.789417 66063 net.cpp:406] relu2 <- conv2
I0821 16:39:29.789427 66063 net.cpp:367] relu2 -> conv2 (in-place)
I0821 16:39:29.789439 66063 net.cpp:122] Setting up relu2
I0821 16:39:29.789453 66063 net.cpp:129] Top shape: 50 256 35 35 (15680000)
I0821 16:39:29.789461 66063 net.cpp:137] Memory required for data: 636108400
I0821 16:39:29.789470 66063 layer_factory.hpp:77] Creating layer norm2
I0821 16:39:29.789489 66063 net.cpp:84] Creating Layer norm2
I0821 16:39:29.789502 66063 net.cpp:406] norm2 <- conv2
I0821 16:39:29.789520 66063 net.cpp:380] norm2 -> norm2
I0821 16:39:29.789613 66063 net.cpp:122] Setting up norm2
I0821 16:39:29.789640 66063 net.cpp:129] Top shape: 50 256 35 35 (15680000)
I0821 16:39:29.789652 66063 net.cpp:137] Memory required for data: 698828400
I0821 16:39:29.789661 66063 layer_factory.hpp:77] Creating layer pool2
I0821 16:39:29.789685 66063 net.cpp:84] Creating Layer pool2
I0821 16:39:29.789695 66063 net.cpp:406] pool2 <- norm2
I0821 16:39:29.789710 66063 net.cpp:380] pool2 -> pool2
I0821 16:39:29.789795 66063 net.cpp:122] Setting up pool2
I0821 16:39:29.789814 66063 net.cpp:129] Top shape: 50 256 17 17 (3699200)
I0821 16:39:29.789825 66063 net.cpp:137] Memory required for data: 713625200
I0821 16:39:29.789876 66063 layer_factory.hpp:77] Creating layer conv3
I0821 16:39:29.789904 66063 net.cpp:84] Creating Layer conv3
I0821 16:39:29.789916 66063 net.cpp:406] conv3 <- pool2
I0821 16:39:29.789938 66063 net.cpp:380] conv3 -> conv3
I0821 16:39:29.832670 66063 net.cpp:122] Setting up conv3
I0821 16:39:29.832705 66063 net.cpp:129] Top shape: 50 384 17 17 (5548800)
I0821 16:39:29.832710 66063 net.cpp:137] Memory required for data: 735820400
I0821 16:39:29.832729 66063 layer_factory.hpp:77] Creating layer relu3
I0821 16:39:29.832744 66063 net.cpp:84] Creating Layer relu3
I0821 16:39:29.832749 66063 net.cpp:406] relu3 <- conv3
I0821 16:39:29.832759 66063 net.cpp:367] relu3 -> conv3 (in-place)
I0821 16:39:29.832772 66063 net.cpp:122] Setting up relu3
I0821 16:39:29.832782 66063 net.cpp:129] Top shape: 50 384 17 17 (5548800)
I0821 16:39:29.832787 66063 net.cpp:137] Memory required for data: 758015600
I0821 16:39:29.832793 66063 layer_factory.hpp:77] Creating layer conv4
I0821 16:39:29.832813 66063 net.cpp:84] Creating Layer conv4
I0821 16:39:29.832821 66063 net.cpp:406] conv4 <- conv3
I0821 16:39:29.832837 66063 net.cpp:380] conv4 -> conv4
I0821 16:39:29.863795 66063 net.cpp:122] Setting up conv4
I0821 16:39:29.863823 66063 net.cpp:129] Top shape: 50 384 17 17 (5548800)
I0821 16:39:29.863827 66063 net.cpp:137] Memory required for data: 780210800
I0821 16:39:29.863837 66063 layer_factory.hpp:77] Creating layer relu4
I0821 16:39:29.863852 66063 net.cpp:84] Creating Layer relu4
I0821 16:39:29.863862 66063 net.cpp:406] relu4 <- conv4
I0821 16:39:29.863874 66063 net.cpp:367] relu4 -> conv4 (in-place)
I0821 16:39:29.863888 66063 net.cpp:122] Setting up relu4
I0821 16:39:29.863896 66063 net.cpp:129] Top shape: 50 384 17 17 (5548800)
I0821 16:39:29.863903 66063 net.cpp:137] Memory required for data: 802406000
I0821 16:39:29.863910 66063 layer_factory.hpp:77] Creating layer conv5
I0821 16:39:29.863929 66063 net.cpp:84] Creating Layer conv5
I0821 16:39:29.863935 66063 net.cpp:406] conv5 <- conv4
I0821 16:39:29.863955 66063 net.cpp:380] conv5 -> conv5
I0821 16:39:29.881148 66063 net.cpp:122] Setting up conv5
I0821 16:39:29.881180 66063 net.cpp:129] Top shape: 50 256 17 17 (3699200)
I0821 16:39:29.881184 66063 net.cpp:137] Memory required for data: 817202800
I0821 16:39:29.881202 66063 layer_factory.hpp:77] Creating layer relu5
I0821 16:39:29.881222 66063 net.cpp:84] Creating Layer relu5
I0821 16:39:29.881229 66063 net.cpp:406] relu5 <- conv5
I0821 16:39:29.881243 66063 net.cpp:367] relu5 -> conv5 (in-place)
I0821 16:39:29.881260 66063 net.cpp:122] Setting up relu5
I0821 16:39:29.881270 66063 net.cpp:129] Top shape: 50 256 17 17 (3699200)
I0821 16:39:29.881276 66063 net.cpp:137] Memory required for data: 831999600
I0821 16:39:29.881283 66063 layer_factory.hpp:77] Creating layer pool5
I0821 16:39:29.881296 66063 net.cpp:84] Creating Layer pool5
I0821 16:39:29.881304 66063 net.cpp:406] pool5 <- conv5
I0821 16:39:29.881314 66063 net.cpp:380] pool5 -> pool5
I0821 16:39:29.881382 66063 net.cpp:122] Setting up pool5
I0821 16:39:29.881395 66063 net.cpp:129] Top shape: 50 256 8 8 (819200)
I0821 16:39:29.881402 66063 net.cpp:137] Memory required for data: 835276400
I0821 16:39:29.881410 66063 layer_factory.hpp:77] Creating layer fc6
I0821 16:39:29.881434 66063 net.cpp:84] Creating Layer fc6
I0821 16:39:29.881443 66063 net.cpp:406] fc6 <- pool5
I0821 16:39:29.881455 66063 net.cpp:380] fc6 -> fc6
I0821 16:39:32.358587 66063 net.cpp:122] Setting up fc6
I0821 16:39:32.358636 66063 net.cpp:129] Top shape: 50 4096 (204800)
I0821 16:39:32.358641 66063 net.cpp:137] Memory required for data: 836095600
I0821 16:39:32.358664 66063 layer_factory.hpp:77] Creating layer relu6
I0821 16:39:32.358685 66063 net.cpp:84] Creating Layer relu6
I0821 16:39:32.358691 66063 net.cpp:406] relu6 <- fc6
I0821 16:39:32.358701 66063 net.cpp:367] relu6 -> fc6 (in-place)
I0821 16:39:32.358711 66063 net.cpp:122] Setting up relu6
I0821 16:39:32.358716 66063 net.cpp:129] Top shape: 50 4096 (204800)
I0821 16:39:32.358719 66063 net.cpp:137] Memory required for data: 836914800
I0821 16:39:32.358772 66063 layer_factory.hpp:77] Creating layer drop6
I0821 16:39:32.358784 66063 net.cpp:84] Creating Layer drop6
I0821 16:39:32.358788 66063 net.cpp:406] drop6 <- fc6
I0821 16:39:32.358793 66063 net.cpp:367] drop6 -> fc6 (in-place)
I0821 16:39:32.358841 66063 net.cpp:122] Setting up drop6
I0821 16:39:32.358850 66063 net.cpp:129] Top shape: 50 4096 (204800)
I0821 16:39:32.358852 66063 net.cpp:137] Memory required for data: 837734000
I0821 16:39:32.358855 66063 layer_factory.hpp:77] Creating layer fc7
I0821 16:39:32.358867 66063 net.cpp:84] Creating Layer fc7
I0821 16:39:32.358872 66063 net.cpp:406] fc7 <- fc6
I0821 16:39:32.358891 66063 net.cpp:380] fc7 -> fc7
I0821 16:39:32.923925 66063 net.cpp:122] Setting up fc7
I0821 16:39:32.923969 66063 net.cpp:129] Top shape: 50 4096 (204800)
I0821 16:39:32.923972 66063 net.cpp:137] Memory required for data: 838553200
I0821 16:39:32.923984 66063 layer_factory.hpp:77] Creating layer relu7
I0821 16:39:32.923996 66063 net.cpp:84] Creating Layer relu7
I0821 16:39:32.924002 66063 net.cpp:406] relu7 <- fc7
I0821 16:39:32.924010 66063 net.cpp:367] relu7 -> fc7 (in-place)
I0821 16:39:32.924021 66063 net.cpp:122] Setting up relu7
I0821 16:39:32.924026 66063 net.cpp:129] Top shape: 50 4096 (204800)
I0821 16:39:32.924028 66063 net.cpp:137] Memory required for data: 839372400
I0821 16:39:32.924031 66063 layer_factory.hpp:77] Creating layer drop7
I0821 16:39:32.924041 66063 net.cpp:84] Creating Layer drop7
I0821 16:39:32.924043 66063 net.cpp:406] drop7 <- fc7
I0821 16:39:32.924049 66063 net.cpp:367] drop7 -> fc7 (in-place)
I0821 16:39:32.924075 66063 net.cpp:122] Setting up drop7
I0821 16:39:32.924083 66063 net.cpp:129] Top shape: 50 4096 (204800)
I0821 16:39:32.924098 66063 net.cpp:137] Memory required for data: 840191600
I0821 16:39:32.924101 66063 layer_factory.hpp:77] Creating layer fc8
I0821 16:39:32.924115 66063 net.cpp:84] Creating Layer fc8
I0821 16:39:32.924118 66063 net.cpp:406] fc8 <- fc7
I0821 16:39:32.924125 66063 net.cpp:380] fc8 -> fc8
I0821 16:39:33.042726 66063 net.cpp:122] Setting up fc8
I0821 16:39:33.042765 66063 net.cpp:129] Top shape: 50 1000 (50000)
I0821 16:39:33.042769 66063 net.cpp:137] Memory required for data: 840391600
I0821 16:39:33.042779 66063 layer_factory.hpp:77] Creating layer fc8_fc8_0_split
I0821 16:39:33.042790 66063 net.cpp:84] Creating Layer fc8_fc8_0_split
I0821 16:39:33.042794 66063 net.cpp:406] fc8_fc8_0_split <- fc8
I0821 16:39:33.042804 66063 net.cpp:380] fc8_fc8_0_split -> fc8_fc8_0_split_0
I0821 16:39:33.042819 66063 net.cpp:380] fc8_fc8_0_split -> fc8_fc8_0_split_1
I0821 16:39:33.042867 66063 net.cpp:122] Setting up fc8_fc8_0_split
I0821 16:39:33.042888 66063 net.cpp:129] Top shape: 50 1000 (50000)
I0821 16:39:33.042892 66063 net.cpp:129] Top shape: 50 1000 (50000)
I0821 16:39:33.042896 66063 net.cpp:137] Memory required for data: 840791600
I0821 16:39:33.042898 66063 layer_factory.hpp:77] Creating layer accuracy
I0821 16:39:33.042912 66063 net.cpp:84] Creating Layer accuracy
I0821 16:39:33.042915 66063 net.cpp:406] accuracy <- fc8_fc8_0_split_0
I0821 16:39:33.042920 66063 net.cpp:406] accuracy <- label_data_1_split_0
I0821 16:39:33.042925 66063 net.cpp:380] accuracy -> accuracy
…
