…
I0721 11:05:01.159078 139542 net.cpp:294] The NetState phase (0) differed from the phase (1) specified by a rule in layer accuracy
I0721 11:05:01.159361 139542 net.cpp:51] Initializing net from parameters: 
name: "AlexNet"
state {
  phase: TRAIN
  level: 0
  stage: ""
}
layer {
  name: "data"
  type: "Data"
  top: "data"
  top: "label"
  include {
    phase: TRAIN
  }
  transform_param {
    mirror: true
    crop_size: 227
    mean_file: "data/ilsvrc12/imagenet_mean.binaryproto"
  }
  data_param {
    source: "/home/neuroShare/data/ImageNet/ILSVRC2012_data/ilsvrc12_train_lmdb"
    batch_size: 128
    backend: LMDB
  }
}
layer {
  name: "conv1"
  type: "Convolution"
  bottom: "data"
  top: "conv1"
  param {
    lr_mult: 1
    decay_mult: 1
  }
  param {
    lr_mult: 2
    decay_mult: 0
  }
  convolution_param {
    num_output: 96
    kernel_size: 9
    stride: 2
    weight_filler {
      type: "gaussian"
      std: 0.01
    }
    bias_filler {
      type: "constant"
      value: 0
    }
  }
}
layer {
  name: "relu1"
  type: "ReLU"
  bottom: "conv1"
  top: "conv1"
}
layer {
  name: "norm1"
  type: "LRN"
  bottom: "conv1"
  top: "norm1"
  lrn_param {
    local_size: 5
    alpha: 0.0001
    beta: 0.75
  }
}
layer {
  name: "pool1"
  type: "Pooling"
  bottom: "norm1"
  top: "pool1"
  pooling_param {
    pool: MAX
    kernel_size: 6
    stride: 2
  }
}
layer {
  name: "conv2"
  type: "Convolution"
  bottom: "pool1"
  top: "conv2"
  param {
    lr_mult: 1
    decay_mult: 1
  }
  param {
    lr_mult: 2
    decay_mult: 0
  }
  convolution_param {
    num_output: 256
    pad: 2
    kernel_size: 5
    group: 2
    weight_filler {
      type: "gaussian"
      std: 0.01
    }
    bias_filler {
      type: "constant"
      value: 0.1
    }
  }
}
layer {
  name: "relu2"
  type: "ReLU"
  bottom: "conv2"
  top: "conv2"
}
layer {
  name: "norm2"
  type: "LRN"
  bottom: "conv2"
  top: "norm2"
  lrn_param {
    local_size: 5
    alpha: 0.0001
    beta: 0.75
  }
}
layer {
  name: "pool2"
  type: "Pooling"
  bottom: "norm2"
  top: "pool2"
  pooling_param {
    pool: MAX
    kernel_size: 3
    stride: 2
  }
}
layer {
  name: "conv3"
  type: "Convolution"
  bottom: "pool2"
  top: "conv3"
  param {
    lr_mult: 1
    decay_mult: 1
  }
  param {
    lr_mult: 2
    decay_mult: 0
  }
  convolution_param {
    num_output: 384
    pad: 1
    kernel_size: 3
    weight_filler {
      type: "gaussian"
      std: 0.01
    }
    bias_filler {
      type: "constant"
      value: 0
    }
  }
}
layer {
  name: "relu3"
  type: "ReLU"
  bottom: "conv3"
  top: "conv3"
}
layer {
  name: "conv4"
  type: "Convolution"
  bottom: "conv3"
  top: "conv4"
  param {
    lr_mult: 1
    decay_mult: 1
  }
  param {
    lr_mult: 2
    decay_mult: 0
  }
  convolution_param {
    num_output: 384
    pad: 1
    kernel_size: 3
    group: 2
    weight_filler {
      type: "gaussian"
      std: 0.01
    }
    bias_filler {
      type: "constant"
      value: 0.1
    }
  }
}
layer {
  name: "relu4"
  type: "ReLU"
  bottom: "conv4"
  top: "conv4"
}
layer {
  name: "conv5"
  type: "Convolution"
  bottom: "conv4"
  top: "conv5"
  param {
    lr_mult: 1
    decay_mult: 1
  }
  param {
    lr_mult: 2
    decay_mult: 0
  }
  convolution_param {
    num_output: 256
    pad: 1
    kernel_size: 3
    group: 2
    weight_filler {
      type: "gaussian"
      std: 0.01
    }
    bias_filler {
      type: "constant"
      value: 0.1
    }
  }
}
layer {
  name: "relu5"
  type: "ReLU"
  bottom: "conv5"
  top: "conv5"
}
layer {
  name: "pool5"
  type: "Pooling"
  bottom: "conv5"
  top: "pool5"
  pooling_param {
    pool: MAX
    kernel_size: 3
    stride: 2
  }
}
layer {
  name: "fc6"
  type: "InnerProduct"
  bottom: "pool5"
  top: "fc6"
  param {
    lr_mult: 1
    decay_mult: 1
  }
  param {
    lr_mult: 2
    decay_mult: 0
  }
  inner_product_param {
    num_output: 4096
    weight_filler {
      type: "gaussian"
      std: 0.005
    }
    bias_filler {
      type: "constant"
      value: 0.1
    }
  }
}
layer {
  name: "relu6"
  type: "ReLU"
  bottom: "fc6"
  top: "fc6"
}
layer {
  name: "drop6"
  type: "Dropout"
  bottom: "fc6"
  top: "fc6"
  dropout_param {
    dropout_ratio: 0.5
  }
}
layer {
  name: "fc7"
  type: "InnerProduct"
  bottom: "fc6"
  top: "fc7"
  param {
    lr_mult: 1
    decay_mult: 1
  }
  param {
    lr_mult: 2
    decay_mult: 0
  }
  inner_product_param {
    num_output: 4096
    weight_filler {
      type: "gaussian"
      std: 0.005
    }
    bias_filler {
      type: "constant"
      value: 0.1
    }
  }
}
layer {
  name: "relu7"
  type: "ReLU"
  bottom: "fc7"
  top: "fc7"
}
layer {
  name: "drop7"
  type: "Dropout"
  bottom: "fc7"
  top: "fc7"
  dropout_param {
    dropout_ratio: 0.5
  }
}
layer {
  name: "fc8"
  type: "InnerProduct"
  bottom: "fc7"
  top: "fc8"
  param {
    lr_mult: 1
    decay_mult: 1
  }
  param {
    lr_mult: 2
    decay_mult: 0
  }
  inner_product_param {
    num_output: 1000
    weight_filler {
      type: "gaussian"
      std: 0.01
    }
    bias_filler {
      type: "constant"
      value: 0
    }
  }
}
layer {
  name: "loss"
  type: "SoftmaxWithLoss"
  bottom: "fc8"
  bottom: "label"
  top: "loss"
}
I0721 11:05:01.159526 139542 layer_factory.hpp:77] Creating layer data
I0721 11:05:01.159667 139542 db_lmdb.cpp:35] Opened lmdb /home/neuroShare/data/ImageNet/ILSVRC2012_data/ilsvrc12_train_lmdb
I0721 11:05:01.159719 139542 net.cpp:84] Creating Layer data
I0721 11:05:01.159730 139542 net.cpp:380] data -> data
I0721 11:05:01.159762 139542 net.cpp:380] data -> label
I0721 11:05:01.159781 139542 data_transformer.cpp:25] Loading mean file from: data/ilsvrc12/imagenet_mean.binaryproto
I0721 11:05:01.164615 139542 data_layer.cpp:45] output data size: 128,3,227,227
I0721 11:05:01.415868 139542 net.cpp:122] Setting up data
I0721 11:05:01.415912 139542 net.cpp:129] Top shape: 128 3 227 227 (19787136)
I0721 11:05:01.415920 139542 net.cpp:129] Top shape: 128 (128)
I0721 11:05:01.415922 139542 net.cpp:137] Memory required for data: 79149056
I0721 11:05:01.415933 139542 layer_factory.hpp:77] Creating layer conv1
I0721 11:05:01.415977 139542 net.cpp:84] Creating Layer conv1
I0721 11:05:01.416000 139542 net.cpp:406] conv1 <- data
I0721 11:05:01.416028 139542 net.cpp:380] conv1 -> conv1
I0721 11:05:01.418680 139542 net.cpp:122] Setting up conv1
I0721 11:05:01.418705 139542 net.cpp:129] Top shape: 128 96 110 110 (148684800)
I0721 11:05:01.418709 139542 net.cpp:137] Memory required for data: 673888256
I0721 11:05:01.418726 139542 layer_factory.hpp:77] Creating layer relu1
I0721 11:05:01.418737 139542 net.cpp:84] Creating Layer relu1
I0721 11:05:01.418742 139542 net.cpp:406] relu1 <- conv1
I0721 11:05:01.418748 139542 net.cpp:367] relu1 -> conv1 (in-place)
I0721 11:05:01.418757 139542 net.cpp:122] Setting up relu1
I0721 11:05:01.418762 139542 net.cpp:129] Top shape: 128 96 110 110 (148684800)
I0721 11:05:01.418766 139542 net.cpp:137] Memory required for data: 1268627456
I0721 11:05:01.418768 139542 layer_factory.hpp:77] Creating layer norm1
I0721 11:05:01.418778 139542 net.cpp:84] Creating Layer norm1
I0721 11:05:01.418783 139542 net.cpp:406] norm1 <- conv1
I0721 11:05:01.418802 139542 net.cpp:380] norm1 -> norm1
I0721 11:05:01.418855 139542 net.cpp:122] Setting up norm1
I0721 11:05:01.418862 139542 net.cpp:129] Top shape: 128 96 110 110 (148684800)
I0721 11:05:01.418866 139542 net.cpp:137] Memory required for data: 1863366656
I0721 11:05:01.418869 139542 layer_factory.hpp:77] Creating layer pool1
I0721 11:05:01.418900 139542 net.cpp:84] Creating Layer pool1
I0721 11:05:01.418905 139542 net.cpp:406] pool1 <- norm1
I0721 11:05:01.418912 139542 net.cpp:380] pool1 -> pool1
I0721 11:05:01.418958 139542 net.cpp:122] Setting up pool1
I0721 11:05:01.418967 139542 net.cpp:129] Top shape: 128 96 53 53 (34516992)
I0721 11:05:01.418970 139542 net.cpp:137] Memory required for data: 2001434624
I0721 11:05:01.418973 139542 layer_factory.hpp:77] Creating layer conv2
I0721 11:05:01.418983 139542 net.cpp:84] Creating Layer conv2
I0721 11:05:01.418988 139542 net.cpp:406] conv2 <- pool1
I0721 11:05:01.418995 139542 net.cpp:380] conv2 -> conv2
I0721 11:05:01.432679 139542 net.cpp:122] Setting up conv2
I0721 11:05:01.432693 139542 net.cpp:129] Top shape: 128 256 53 53 (92045312)
I0721 11:05:01.432696 139542 net.cpp:137] Memory required for data: 2369615872
I0721 11:05:01.432706 139542 layer_factory.hpp:77] Creating layer relu2
I0721 11:05:01.432713 139542 net.cpp:84] Creating Layer relu2
I0721 11:05:01.432715 139542 net.cpp:406] relu2 <- conv2
I0721 11:05:01.432723 139542 net.cpp:367] relu2 -> conv2 (in-place)
I0721 11:05:01.432729 139542 net.cpp:122] Setting up relu2
I0721 11:05:01.432734 139542 net.cpp:129] Top shape: 128 256 53 53 (92045312)
I0721 11:05:01.432735 139542 net.cpp:137] Memory required for data: 2737797120
I0721 11:05:01.432739 139542 layer_factory.hpp:77] Creating layer norm2
I0721 11:05:01.432744 139542 net.cpp:84] Creating Layer norm2
I0721 11:05:01.432746 139542 net.cpp:406] norm2 <- conv2
I0721 11:05:01.432751 139542 net.cpp:380] norm2 -> norm2
I0721 11:05:01.432795 139542 net.cpp:122] Setting up norm2
I0721 11:05:01.432801 139542 net.cpp:129] Top shape: 128 256 53 53 (92045312)
I0721 11:05:01.432804 139542 net.cpp:137] Memory required for data: 3105978368
I0721 11:05:01.432807 139542 layer_factory.hpp:77] Creating layer pool2
I0721 11:05:01.432816 139542 net.cpp:84] Creating Layer pool2
I0721 11:05:01.432818 139542 net.cpp:406] pool2 <- norm2
I0721 11:05:01.432823 139542 net.cpp:380] pool2 -> pool2
I0721 11:05:01.432852 139542 net.cpp:122] Setting up pool2
I0721 11:05:01.432858 139542 net.cpp:129] Top shape: 128 256 26 26 (22151168)
I0721 11:05:01.432860 139542 net.cpp:137] Memory required for data: 3194583040
I0721 11:05:01.432863 139542 layer_factory.hpp:77] Creating layer conv3
I0721 11:05:01.432874 139542 net.cpp:84] Creating Layer conv3
I0721 11:05:01.432879 139542 net.cpp:406] conv3 <- pool2
I0721 11:05:01.432898 139542 net.cpp:380] conv3 -> conv3
I0721 11:05:01.459285 139542 net.cpp:122] Setting up conv3
I0721 11:05:01.459297 139542 net.cpp:129] Top shape: 128 384 26 26 (33226752)
I0721 11:05:01.459300 139542 net.cpp:137] Memory required for data: 3327490048
I0721 11:05:01.459308 139542 layer_factory.hpp:77] Creating layer relu3
I0721 11:05:01.459314 139542 net.cpp:84] Creating Layer relu3
I0721 11:05:01.459317 139542 net.cpp:406] relu3 <- conv3
I0721 11:05:01.459322 139542 net.cpp:367] relu3 -> conv3 (in-place)
I0721 11:05:01.459328 139542 net.cpp:122] Setting up relu3
I0721 11:05:01.459332 139542 net.cpp:129] Top shape: 128 384 26 26 (33226752)
I0721 11:05:01.459334 139542 net.cpp:137] Memory required for data: 3460397056
I0721 11:05:01.459336 139542 layer_factory.hpp:77] Creating layer conv4
I0721 11:05:01.459344 139542 net.cpp:84] Creating Layer conv4
I0721 11:05:01.459347 139542 net.cpp:406] conv4 <- conv3
I0721 11:05:01.459352 139542 net.cpp:380] conv4 -> conv4
I0721 11:05:01.478657 139542 net.cpp:122] Setting up conv4
I0721 11:05:01.478668 139542 net.cpp:129] Top shape: 128 384 26 26 (33226752)
I0721 11:05:01.478672 139542 net.cpp:137] Memory required for data: 3593304064
I0721 11:05:01.478677 139542 layer_factory.hpp:77] Creating layer relu4
I0721 11:05:01.478682 139542 net.cpp:84] Creating Layer relu4
I0721 11:05:01.478685 139542 net.cpp:406] relu4 <- conv4
I0721 11:05:01.478690 139542 net.cpp:367] relu4 -> conv4 (in-place)
I0721 11:05:01.478695 139542 net.cpp:122] Setting up relu4
I0721 11:05:01.478699 139542 net.cpp:129] Top shape: 128 384 26 26 (33226752)
I0721 11:05:01.478718 139542 net.cpp:137] Memory required for data: 3726211072
I0721 11:05:01.478720 139542 layer_factory.hpp:77] Creating layer conv5
I0721 11:05:01.478729 139542 net.cpp:84] Creating Layer conv5
I0721 11:05:01.478731 139542 net.cpp:406] conv5 <- conv4
I0721 11:05:01.478736 139542 net.cpp:380] conv5 -> conv5
I0721 11:05:01.491700 139542 net.cpp:122] Setting up conv5
I0721 11:05:01.491711 139542 net.cpp:129] Top shape: 128 256 26 26 (22151168)
I0721 11:05:01.491714 139542 net.cpp:137] Memory required for data: 3814815744
I0721 11:05:01.491724 139542 layer_factory.hpp:77] Creating layer relu5
I0721 11:05:01.491729 139542 net.cpp:84] Creating Layer relu5
I0721 11:05:01.491732 139542 net.cpp:406] relu5 <- conv5
I0721 11:05:01.491737 139542 net.cpp:367] relu5 -> conv5 (in-place)
I0721 11:05:01.491744 139542 net.cpp:122] Setting up relu5
I0721 11:05:01.491747 139542 net.cpp:129] Top shape: 128 256 26 26 (22151168)
I0721 11:05:01.491750 139542 net.cpp:137] Memory required for data: 3903420416
I0721 11:05:01.491751 139542 layer_factory.hpp:77] Creating layer pool5
I0721 11:05:01.491756 139542 net.cpp:84] Creating Layer pool5
I0721 11:05:01.491758 139542 net.cpp:406] pool5 <- conv5
I0721 11:05:01.491763 139542 net.cpp:380] pool5 -> pool5
I0721 11:05:01.491792 139542 net.cpp:122] Setting up pool5
I0721 11:05:01.491811 139542 net.cpp:129] Top shape: 128 256 13 13 (5537792)
I0721 11:05:01.491824 139542 net.cpp:137] Memory required for data: 3925571584
I0721 11:05:01.491827 139542 layer_factory.hpp:77] Creating layer fc6
I0721 11:05:01.491840 139542 net.cpp:84] Creating Layer fc6
I0721 11:05:01.491843 139542 net.cpp:406] fc6 <- pool5
I0721 11:05:01.491850 139542 net.cpp:380] fc6 -> fc6
I0721 11:05:06.537962 139542 net.cpp:122] Setting up fc6
I0721 11:05:06.538023 139542 net.cpp:129] Top shape: 128 4096 (524288)
I0721 11:05:06.538028 139542 net.cpp:137] Memory required for data: 3927668736
I0721 11:05:06.538046 139542 layer_factory.hpp:77] Creating layer relu6
I0721 11:05:06.538081 139542 net.cpp:84] Creating Layer relu6
I0721 11:05:06.538089 139542 net.cpp:406] relu6 <- fc6
I0721 11:05:06.538095 139542 net.cpp:367] relu6 -> fc6 (in-place)
I0721 11:05:06.538103 139542 net.cpp:122] Setting up relu6
I0721 11:05:06.538110 139542 net.cpp:129] Top shape: 128 4096 (524288)
I0721 11:05:06.538113 139542 net.cpp:137] Memory required for data: 3929765888
I0721 11:05:06.538116 139542 layer_factory.hpp:77] Creating layer drop6
I0721 11:05:06.538143 139542 net.cpp:84] Creating Layer drop6
I0721 11:05:06.538149 139542 net.cpp:406] drop6 <- fc6
I0721 11:05:06.538166 139542 net.cpp:367] drop6 -> fc6 (in-place)
I0721 11:05:06.538213 139542 net.cpp:122] Setting up drop6
I0721 11:05:06.538220 139542 net.cpp:129] Top shape: 128 4096 (524288)
I0721 11:05:06.538224 139542 net.cpp:137] Memory required for data: 3931863040
I0721 11:05:06.538228 139542 layer_factory.hpp:77] Creating layer fc7
I0721 11:05:06.538241 139542 net.cpp:84] Creating Layer fc7
I0721 11:05:06.538245 139542 net.cpp:406] fc7 <- fc6
I0721 11:05:06.538252 139542 net.cpp:380] fc7 -> fc7
I0721 11:05:07.014875 139542 net.cpp:122] Setting up fc7
I0721 11:05:07.014904 139542 net.cpp:129] Top shape: 128 4096 (524288)
I0721 11:05:07.014907 139542 net.cpp:137] Memory required for data: 3933960192
I0721 11:05:07.014916 139542 layer_factory.hpp:77] Creating layer relu7
I0721 11:05:07.014927 139542 net.cpp:84] Creating Layer relu7
I0721 11:05:07.014931 139542 net.cpp:406] relu7 <- fc7
I0721 11:05:07.014938 139542 net.cpp:367] relu7 -> fc7 (in-place)
I0721 11:05:07.014946 139542 net.cpp:122] Setting up relu7
I0721 11:05:07.014950 139542 net.cpp:129] Top shape: 128 4096 (524288)
I0721 11:05:07.014953 139542 net.cpp:137] Memory required for data: 3936057344
I0721 11:05:07.014955 139542 layer_factory.hpp:77] Creating layer drop7
I0721 11:05:07.014964 139542 net.cpp:84] Creating Layer drop7
I0721 11:05:07.014966 139542 net.cpp:406] drop7 <- fc7
I0721 11:05:07.014971 139542 net.cpp:367] drop7 -> fc7 (in-place)
I0721 11:05:07.014986 139542 net.cpp:122] Setting up drop7
I0721 11:05:07.015022 139542 net.cpp:129] Top shape: 128 4096 (524288)
I0721 11:05:07.015036 139542 net.cpp:137] Memory required for data: 3938154496
I0721 11:05:07.015040 139542 layer_factory.hpp:77] Creating layer fc8
I0721 11:05:07.015049 139542 net.cpp:84] Creating Layer fc8
I0721 11:05:07.015053 139542 net.cpp:406] fc8 <- fc7
I0721 11:05:07.015059 139542 net.cpp:380] fc8 -> fc8
I0721 11:05:07.131242 139542 net.cpp:122] Setting up fc8
I0721 11:05:07.131273 139542 net.cpp:129] Top shape: 128 1000 (128000)
I0721 11:05:07.131275 139542 net.cpp:137] Memory required for data: 3938666496
I0721 11:05:07.131284 139542 layer_factory.hpp:77] Creating layer loss
I0721 11:05:07.131300 139542 net.cpp:84] Creating Layer loss
I0721 11:05:07.131305 139542 net.cpp:406] loss <- fc8
I0721 11:05:07.131310 139542 net.cpp:406] loss <- label
I0721 11:05:07.131319 139542 net.cpp:380] loss -> loss
I0721 11:05:07.131409 139542 layer_factory.hpp:77] Creating layer loss
…
I0721 11:05:07.133579 139542 net.cpp:294] The NetState phase (1) differed from the phase (0) specified by a rule in layer data
I0721 11:05:07.133807 139542 net.cpp:51] Initializing net from parameters: 
name: "AlexNet"
state {
  phase: TEST
}
layer {
  name: "data"
  type: "Data"
  top: "data"
  top: "label"
  include {
    phase: TEST
  }
  transform_param {
    mirror: false
    crop_size: 227
    mean_file: "data/ilsvrc12/imagenet_mean.binaryproto"
  }
  data_param {
    source: "/home/neuroShare/data/ImageNet/ILSVRC2012_data/ilsvrc12_val_lmdb"
    batch_size: 50
    backend: LMDB
  }
}
layer {
  name: "conv1"
  type: "Convolution"
  bottom: "data"
  top: "conv1"
  param {
    lr_mult: 1
    decay_mult: 1
  }
  param {
    lr_mult: 2
    decay_mult: 0
  }
  convolution_param {
    num_output: 96
    kernel_size: 9
    stride: 2
    weight_filler {
      type: "gaussian"
      std: 0.01
    }
    bias_filler {
      type: "constant"
      value: 0
    }
  }
}
layer {
  name: "relu1"
  type: "ReLU"
  bottom: "conv1"
  top: "conv1"
}
layer {
  name: "norm1"
  type: "LRN"
  bottom: "conv1"
  top: "norm1"
  lrn_param {
    local_size: 5
    alpha: 0.0001
    beta: 0.75
  }
}
layer {
  name: "pool1"
  type: "Pooling"
  bottom: "norm1"
  top: "pool1"
  pooling_param {
    pool: MAX
    kernel_size: 6
    stride: 2
  }
}
layer {
  name: "conv2"
  type: "Convolution"
  bottom: "pool1"
  top: "conv2"
  param {
    lr_mult: 1
    decay_mult: 1
  }
  param {
    lr_mult: 2
    decay_mult: 0
  }
  convolution_param {
    num_output: 256
    pad: 2
    kernel_size: 5
    group: 2
    weight_filler {
      type: "gaussian"
      std: 0.01
    }
    bias_filler {
      type: "constant"
      value: 0.1
    }
  }
}
layer {
  name: "relu2"
  type: "ReLU"
  bottom: "conv2"
  top: "conv2"
}
layer {
  name: "norm2"
  type: "LRN"
  bottom: "conv2"
  top: "norm2"
  lrn_param {
    local_size: 5
    alpha: 0.0001
    beta: 0.75
  }
}
layer {
  name: "pool2"
  type: "Pooling"
  bottom: "norm2"
  top: "pool2"
  pooling_param {
    pool: MAX
    kernel_size: 3
    stride: 2
  }
}
layer {
  name: "conv3"
  type: "Convolution"
  bottom: "pool2"
  top: "conv3"
  param {
    lr_mult: 1
    decay_mult: 1
  }
  param {
    lr_mult: 2
    decay_mult: 0
  }
  convolution_param {
    num_output: 384
    pad: 1
    kernel_size: 3
    weight_filler {
      type: "gaussian"
      std: 0.01
    }
    bias_filler {
      type: "constant"
      value: 0
    }
  }
}
layer {
  name: "relu3"
  type: "ReLU"
  bottom: "conv3"
  top: "conv3"
}
layer {
  name: "conv4"
  type: "Convolution"
  bottom: "conv3"
  top: "conv4"
  param {
    lr_mult: 1
    decay_mult: 1
  }
  param {
    lr_mult: 2
    decay_mult: 0
  }
  convolution_param {
    num_output: 384
    pad: 1
    kernel_size: 3
    group: 2
    weight_filler {
      type: "gaussian"
      std: 0.01
    }
    bias_filler {
      type: "constant"
      value: 0.1
    }
  }
}
layer {
  name: "relu4"
  type: "ReLU"
  bottom: "conv4"
  top: "conv4"
}
layer {
  name: "conv5"
  type: "Convolution"
  bottom: "conv4"
  top: "conv5"
  param {
    lr_mult: 1
    decay_mult: 1
  }
  param {
    lr_mult: 2
    decay_mult: 0
  }
  convolution_param {
    num_output: 256
    pad: 1
    kernel_size: 3
    group: 2
    weight_filler {
      type: "gaussian"
      std: 0.01
    }
    bias_filler {
      type: "constant"
      value: 0.1
    }
  }
}
layer {
  name: "relu5"
  type: "ReLU"
  bottom: "conv5"
  top: "conv5"
}
layer {
  name: "pool5"
  type: "Pooling"
  bottom: "conv5"
  top: "pool5"
  pooling_param {
    pool: MAX
    kernel_size: 3
    stride: 2
  }
}
layer {
  name: "fc6"
  type: "InnerProduct"
  bottom: "pool5"
  top: "fc6"
  param {
    lr_mult: 1
    decay_mult: 1
  }
  param {
    lr_mult: 2
    decay_mult: 0
  }
  inner_product_param {
    num_output: 4096
    weight_filler {
      type: "gaussian"
      std: 0.005
    }
    bias_filler {
      type: "constant"
      value: 0.1
    }
  }
}
layer {
  name: "relu6"
  type: "ReLU"
  bottom: "fc6"
  top: "fc6"
}
layer {
  name: "drop6"
  type: "Dropout"
  bottom: "fc6"
  top: "fc6"
  dropout_param {
    dropout_ratio: 0.5
  }
}
layer {
  name: "fc7"
  type: "InnerProduct"
  bottom: "fc6"
  top: "fc7"
  param {
    lr_mult: 1
    decay_mult: 1
  }
  param {
    lr_mult: 2
    decay_mult: 0
  }
  inner_product_param {
    num_output: 4096
    weight_filler {
      type: "gaussian"
      std: 0.005
    }
    bias_filler {
      type: "constant"
      value: 0.1
    }
  }
}
layer {
  name: "relu7"
  type: "ReLU"
  bottom: "fc7"
  top: "fc7"
}
layer {
  name: "drop7"
  type: "Dropout"
  bottom: "fc7"
  top: "fc7"
  dropout_param {
    dropout_ratio: 0.5
  }
}
layer {
  name: "fc8"
  type: "InnerProduct"
  bottom: "fc7"
  top: "fc8"
  param {
    lr_mult: 1
    decay_mult: 1
  }
  param {
    lr_mult: 2
    decay_mult: 0
  }
  inner_product_param {
    num_output: 1000
    weight_filler {
      type: "gaussian"
      std: 0.01
    }
    bias_filler {
      type: "constant"
      value: 0
    }
  }
}
layer {
  name: "accuracy"
  type: "Accuracy"
  bottom: "fc8"
  bottom: "label"
  top: "accuracy"
  include {
    phase: TEST
  }
}
layer {
  name: "loss"
  type: "SoftmaxWithLoss"
  bottom: "fc8"
  bottom: "label"
  top: "loss"
}
I0721 11:05:07.133977 139542 layer_factory.hpp:77] Creating layer data
I0721 11:05:07.134055 139542 db_lmdb.cpp:35] Opened lmdb /home/neuroShare/data/ImageNet/ILSVRC2012_data/ilsvrc12_val_lmdb
I0721 11:05:07.134073 139542 net.cpp:84] Creating Layer data
I0721 11:05:07.134081 139542 net.cpp:380] data -> data
I0721 11:05:07.134090 139542 net.cpp:380] data -> label
I0721 11:05:07.134097 139542 data_transformer.cpp:25] Loading mean file from: data/ilsvrc12/imagenet_mean.binaryproto
I0721 11:05:07.136464 139542 data_layer.cpp:45] output data size: 50,3,227,227
I0721 11:05:07.223047 139542 net.cpp:122] Setting up data
I0721 11:05:07.223080 139542 net.cpp:129] Top shape: 50 3 227 227 (7729350)
I0721 11:05:07.223088 139542 net.cpp:129] Top shape: 50 (50)
I0721 11:05:07.223090 139542 net.cpp:137] Memory required for data: 30917600
I0721 11:05:07.223096 139542 layer_factory.hpp:77] Creating layer label_data_1_split
I0721 11:05:07.223119 139542 net.cpp:84] Creating Layer label_data_1_split
I0721 11:05:07.223124 139542 net.cpp:406] label_data_1_split <- label
I0721 11:05:07.223131 139542 net.cpp:380] label_data_1_split -> label_data_1_split_0
I0721 11:05:07.223141 139542 net.cpp:380] label_data_1_split -> label_data_1_split_1
I0721 11:05:07.223198 139542 net.cpp:122] Setting up label_data_1_split
I0721 11:05:07.223213 139542 net.cpp:129] Top shape: 50 (50)
I0721 11:05:07.223228 139542 net.cpp:129] Top shape: 50 (50)
I0721 11:05:07.223232 139542 net.cpp:137] Memory required for data: 30918000
I0721 11:05:07.223234 139542 layer_factory.hpp:77] Creating layer conv1
I0721 11:05:07.223249 139542 net.cpp:84] Creating Layer conv1
I0721 11:05:07.223253 139542 net.cpp:406] conv1 <- data
I0721 11:05:07.223260 139542 net.cpp:380] conv1 -> conv1
I0721 11:05:07.224256 139542 net.cpp:122] Setting up conv1
I0721 11:05:07.224265 139542 net.cpp:129] Top shape: 50 96 110 110 (58080000)
I0721 11:05:07.224268 139542 net.cpp:137] Memory required for data: 263238000
I0721 11:05:07.224277 139542 layer_factory.hpp:77] Creating layer relu1
I0721 11:05:07.224283 139542 net.cpp:84] Creating Layer relu1
I0721 11:05:07.224287 139542 net.cpp:406] relu1 <- conv1
I0721 11:05:07.224292 139542 net.cpp:367] relu1 -> conv1 (in-place)
I0721 11:05:07.224298 139542 net.cpp:122] Setting up relu1
I0721 11:05:07.224301 139542 net.cpp:129] Top shape: 50 96 110 110 (58080000)
I0721 11:05:07.224304 139542 net.cpp:137] Memory required for data: 495558000
I0721 11:05:07.224306 139542 layer_factory.hpp:77] Creating layer norm1
I0721 11:05:07.224313 139542 net.cpp:84] Creating Layer norm1
I0721 11:05:07.224316 139542 net.cpp:406] norm1 <- conv1
I0721 11:05:07.224321 139542 net.cpp:380] norm1 -> norm1
I0721 11:05:07.224364 139542 net.cpp:122] Setting up norm1
I0721 11:05:07.224371 139542 net.cpp:129] Top shape: 50 96 110 110 (58080000)
I0721 11:05:07.224375 139542 net.cpp:137] Memory required for data: 727878000
I0721 11:05:07.224377 139542 layer_factory.hpp:77] Creating layer pool1
I0721 11:05:07.224383 139542 net.cpp:84] Creating Layer pool1
I0721 11:05:07.224386 139542 net.cpp:406] pool1 <- norm1
I0721 11:05:07.224392 139542 net.cpp:380] pool1 -> pool1
I0721 11:05:07.224423 139542 net.cpp:122] Setting up pool1
I0721 11:05:07.224429 139542 net.cpp:129] Top shape: 50 96 53 53 (13483200)
I0721 11:05:07.224443 139542 net.cpp:137] Memory required for data: 781810800
I0721 11:05:07.224447 139542 layer_factory.hpp:77] Creating layer conv2
I0721 11:05:07.224455 139542 net.cpp:84] Creating Layer conv2
I0721 11:05:07.224458 139542 net.cpp:406] conv2 <- pool1
I0721 11:05:07.224465 139542 net.cpp:380] conv2 -> conv2
I0721 11:05:07.233631 139542 net.cpp:122] Setting up conv2
I0721 11:05:07.233644 139542 net.cpp:129] Top shape: 50 256 53 53 (35955200)
I0721 11:05:07.233669 139542 net.cpp:137] Memory required for data: 925631600
I0721 11:05:07.233678 139542 layer_factory.hpp:77] Creating layer relu2
I0721 11:05:07.233685 139542 net.cpp:84] Creating Layer relu2
I0721 11:05:07.233688 139542 net.cpp:406] relu2 <- conv2
I0721 11:05:07.233693 139542 net.cpp:367] relu2 -> conv2 (in-place)
I0721 11:05:07.233700 139542 net.cpp:122] Setting up relu2
I0721 11:05:07.233703 139542 net.cpp:129] Top shape: 50 256 53 53 (35955200)
I0721 11:05:07.233706 139542 net.cpp:137] Memory required for data: 1069452400
I0721 11:05:07.233710 139542 layer_factory.hpp:77] Creating layer norm2
I0721 11:05:07.233716 139542 net.cpp:84] Creating Layer norm2
I0721 11:05:07.233718 139542 net.cpp:406] norm2 <- conv2
I0721 11:05:07.233723 139542 net.cpp:380] norm2 -> norm2
I0721 11:05:07.233769 139542 net.cpp:122] Setting up norm2
I0721 11:05:07.233777 139542 net.cpp:129] Top shape: 50 256 53 53 (35955200)
I0721 11:05:07.233779 139542 net.cpp:137] Memory required for data: 1213273200
I0721 11:05:07.233783 139542 layer_factory.hpp:77] Creating layer pool2
I0721 11:05:07.233788 139542 net.cpp:84] Creating Layer pool2
I0721 11:05:07.233791 139542 net.cpp:406] pool2 <- norm2
I0721 11:05:07.233796 139542 net.cpp:380] pool2 -> pool2
I0721 11:05:07.233825 139542 net.cpp:122] Setting up pool2
I0721 11:05:07.233831 139542 net.cpp:129] Top shape: 50 256 26 26 (8652800)
I0721 11:05:07.233834 139542 net.cpp:137] Memory required for data: 1247884400
I0721 11:05:07.233836 139542 layer_factory.hpp:77] Creating layer conv3
I0721 11:05:07.233845 139542 net.cpp:84] Creating Layer conv3
I0721 11:05:07.233850 139542 net.cpp:406] conv3 <- pool2
I0721 11:05:07.233867 139542 net.cpp:380] conv3 -> conv3
I0721 11:05:07.259153 139542 net.cpp:122] Setting up conv3
I0721 11:05:07.259165 139542 net.cpp:129] Top shape: 50 384 26 26 (12979200)
I0721 11:05:07.259167 139542 net.cpp:137] Memory required for data: 1299801200
I0721 11:05:07.259176 139542 layer_factory.hpp:77] Creating layer relu3
I0721 11:05:07.259182 139542 net.cpp:84] Creating Layer relu3
I0721 11:05:07.259186 139542 net.cpp:406] relu3 <- conv3
I0721 11:05:07.259191 139542 net.cpp:367] relu3 -> conv3 (in-place)
I0721 11:05:07.259196 139542 net.cpp:122] Setting up relu3
I0721 11:05:07.259199 139542 net.cpp:129] Top shape: 50 384 26 26 (12979200)
I0721 11:05:07.259202 139542 net.cpp:137] Memory required for data: 1351718000
I0721 11:05:07.259204 139542 layer_factory.hpp:77] Creating layer conv4
I0721 11:05:07.259212 139542 net.cpp:84] Creating Layer conv4
I0721 11:05:07.259215 139542 net.cpp:406] conv4 <- conv3
I0721 11:05:07.259220 139542 net.cpp:380] conv4 -> conv4
I0721 11:05:07.278228 139542 net.cpp:122] Setting up conv4
I0721 11:05:07.278239 139542 net.cpp:129] Top shape: 50 384 26 26 (12979200)
I0721 11:05:07.278241 139542 net.cpp:137] Memory required for data: 1403634800
I0721 11:05:07.278246 139542 layer_factory.hpp:77] Creating layer relu4
I0721 11:05:07.278252 139542 net.cpp:84] Creating Layer relu4
I0721 11:05:07.278255 139542 net.cpp:406] relu4 <- conv4
I0721 11:05:07.278260 139542 net.cpp:367] relu4 -> conv4 (in-place)
I0721 11:05:07.278265 139542 net.cpp:122] Setting up relu4
I0721 11:05:07.278270 139542 net.cpp:129] Top shape: 50 384 26 26 (12979200)
I0721 11:05:07.278272 139542 net.cpp:137] Memory required for data: 1455551600
I0721 11:05:07.278275 139542 layer_factory.hpp:77] Creating layer conv5
I0721 11:05:07.278282 139542 net.cpp:84] Creating Layer conv5
I0721 11:05:07.278285 139542 net.cpp:406] conv5 <- conv4
I0721 11:05:07.278290 139542 net.cpp:380] conv5 -> conv5
I0721 11:05:07.291015 139542 net.cpp:122] Setting up conv5
I0721 11:05:07.291025 139542 net.cpp:129] Top shape: 50 256 26 26 (8652800)
I0721 11:05:07.291028 139542 net.cpp:137] Memory required for data: 1490162800
I0721 11:05:07.291038 139542 layer_factory.hpp:77] Creating layer relu5
I0721 11:05:07.291043 139542 net.cpp:84] Creating Layer relu5
I0721 11:05:07.291046 139542 net.cpp:406] relu5 <- conv5
I0721 11:05:07.291051 139542 net.cpp:367] relu5 -> conv5 (in-place)
I0721 11:05:07.291069 139542 net.cpp:122] Setting up relu5
I0721 11:05:07.291072 139542 net.cpp:129] Top shape: 50 256 26 26 (8652800)
I0721 11:05:07.291075 139542 net.cpp:137] Memory required for data: 1524774000
I0721 11:05:07.291077 139542 layer_factory.hpp:77] Creating layer pool5
I0721 11:05:07.291085 139542 net.cpp:84] Creating Layer pool5
I0721 11:05:07.291087 139542 net.cpp:406] pool5 <- conv5
I0721 11:05:07.291091 139542 net.cpp:380] pool5 -> pool5
I0721 11:05:07.291141 139542 net.cpp:122] Setting up pool5
I0721 11:05:07.291148 139542 net.cpp:129] Top shape: 50 256 13 13 (2163200)
I0721 11:05:07.291162 139542 net.cpp:137] Memory required for data: 1533426800
I0721 11:05:07.291165 139542 layer_factory.hpp:77] Creating layer fc6
I0721 11:05:07.291184 139542 net.cpp:84] Creating Layer fc6
I0721 11:05:07.291188 139542 net.cpp:406] fc6 <- pool5
I0721 11:05:07.291194 139542 net.cpp:380] fc6 -> fc6
I0721 11:05:12.325048 139542 net.cpp:122] Setting up fc6
I0721 11:05:12.325086 139542 net.cpp:129] Top shape: 50 4096 (204800)
I0721 11:05:12.325090 139542 net.cpp:137] Memory required for data: 1534246000
I0721 11:05:12.325104 139542 layer_factory.hpp:77] Creating layer relu6
I0721 11:05:12.325124 139542 net.cpp:84] Creating Layer relu6
I0721 11:05:12.325129 139542 net.cpp:406] relu6 <- fc6
I0721 11:05:12.325139 139542 net.cpp:367] relu6 -> fc6 (in-place)
I0721 11:05:12.325146 139542 net.cpp:122] Setting up relu6
I0721 11:05:12.325150 139542 net.cpp:129] Top shape: 50 4096 (204800)
I0721 11:05:12.325153 139542 net.cpp:137] Memory required for data: 1535065200
I0721 11:05:12.325156 139542 layer_factory.hpp:77] Creating layer drop6
I0721 11:05:12.325165 139542 net.cpp:84] Creating Layer drop6
I0721 11:05:12.325167 139542 net.cpp:406] drop6 <- fc6
I0721 11:05:12.325173 139542 net.cpp:367] drop6 -> fc6 (in-place)
I0721 11:05:12.325201 139542 net.cpp:122] Setting up drop6
I0721 11:05:12.325208 139542 net.cpp:129] Top shape: 50 4096 (204800)
I0721 11:05:12.325222 139542 net.cpp:137] Memory required for data: 1535884400
I0721 11:05:12.325225 139542 layer_factory.hpp:77] Creating layer fc7
I0721 11:05:12.325247 139542 net.cpp:84] Creating Layer fc7
I0721 11:05:12.325249 139542 net.cpp:406] fc7 <- fc6
I0721 11:05:12.325256 139542 net.cpp:380] fc7 -> fc7
I0721 11:05:12.824542 139542 net.cpp:122] Setting up fc7
I0721 11:05:12.824578 139542 net.cpp:129] Top shape: 50 4096 (204800)
I0721 11:05:12.824581 139542 net.cpp:137] Memory required for data: 1536703600
I0721 11:05:12.824596 139542 layer_factory.hpp:77] Creating layer relu7
I0721 11:05:12.824612 139542 net.cpp:84] Creating Layer relu7
I0721 11:05:12.824618 139542 net.cpp:406] relu7 <- fc7
I0721 11:05:12.824627 139542 net.cpp:367] relu7 -> fc7 (in-place)
I0721 11:05:12.824636 139542 net.cpp:122] Setting up relu7
I0721 11:05:12.824640 139542 net.cpp:129] Top shape: 50 4096 (204800)
I0721 11:05:12.824642 139542 net.cpp:137] Memory required for data: 1537522800
I0721 11:05:12.824645 139542 layer_factory.hpp:77] Creating layer drop7
I0721 11:05:12.824654 139542 net.cpp:84] Creating Layer drop7
I0721 11:05:12.824657 139542 net.cpp:406] drop7 <- fc7
I0721 11:05:12.824662 139542 net.cpp:367] drop7 -> fc7 (in-place)
I0721 11:05:12.824704 139542 net.cpp:122] Setting up drop7
I0721 11:05:12.824712 139542 net.cpp:129] Top shape: 50 4096 (204800)
I0721 11:05:12.824714 139542 net.cpp:137] Memory required for data: 1538342000
I0721 11:05:12.824717 139542 layer_factory.hpp:77] Creating layer fc8
I0721 11:05:12.824726 139542 net.cpp:84] Creating Layer fc8
I0721 11:05:12.824730 139542 net.cpp:406] fc8 <- fc7
I0721 11:05:12.824748 139542 net.cpp:380] fc8 -> fc8
I0721 11:05:12.946044 139542 net.cpp:122] Setting up fc8
I0721 11:05:12.946076 139542 net.cpp:129] Top shape: 50 1000 (50000)
I0721 11:05:12.946079 139542 net.cpp:137] Memory required for data: 1538542000
I0721 11:05:12.946089 139542 layer_factory.hpp:77] Creating layer fc8_fc8_0_split
I0721 11:05:12.946097 139542 net.cpp:84] Creating Layer fc8_fc8_0_split
I0721 11:05:12.946102 139542 net.cpp:406] fc8_fc8_0_split <- fc8
I0721 11:05:12.946151 139542 net.cpp:380] fc8_fc8_0_split -> fc8_fc8_0_split_0
I0721 11:05:12.946161 139542 net.cpp:380] fc8_fc8_0_split -> fc8_fc8_0_split_1
I0721 11:05:12.946209 139542 net.cpp:122] Setting up fc8_fc8_0_split
I0721 11:05:12.946216 139542 net.cpp:129] Top shape: 50 1000 (50000)
I0721 11:05:12.946220 139542 net.cpp:129] Top shape: 50 1000 (50000)
I0721 11:05:12.946223 139542 net.cpp:137] Memory required for data: 1538942000
I0721 11:05:12.946226 139542 layer_factory.hpp:77] Creating layer accuracy
I0721 11:05:12.946240 139542 net.cpp:84] Creating Layer accuracy
I0721 11:05:12.946245 139542 net.cpp:406] accuracy <- fc8_fc8_0_split_0
I0721 11:05:12.946260 139542 net.cpp:406] accuracy <- label_data_1_split_0
I0721 11:05:12.946267 139542 net.cpp:380] accuracy -> accuracy
…
