…
I0720 05:08:25.491737 73798 net.cpp:294] The NetState phase (0) differed from the phase (1) specified by a rule in layer accuracy
I0720 05:08:25.491967 73798 net.cpp:51] Initializing net from parameters: 
name: "AlexNet"
state {
  phase: TRAIN
  level: 0
  stage: ""
}
layer {
  name: "data"
  type: "Data"
  top: "data"
  top: "label"
  include {
    phase: TRAIN
  }
  transform_param {
    mirror: true
    crop_size: 227
    mean_file: "data/ilsvrc12/imagenet_mean.binaryproto"
  }
  data_param {
    source: "/home/neuroShare/data/ImageNet/ILSVRC2012_data/ilsvrc12_train_lmdb"
    batch_size: 256
    backend: LMDB
  }
}
layer {
  name: "conv1"
  type: "Convolution"
  bottom: "data"
  top: "conv1"
  param {
    lr_mult: 1
    decay_mult: 1
  }
  param {
    lr_mult: 2
    decay_mult: 0
  }
  convolution_param {
    num_output: 96
    kernel_size: 11
    stride: 4
    weight_filler {
      type: "gaussian"
      std: 0.01
    }
    bias_filler {
      type: "constant"
      value: 0
    }
  }
}
layer {
  name: "relu1"
  type: "ReLU"
  bottom: "conv1"
  top: "conv1"
}
layer {
  name: "norm1"
  type: "LRN"
  bottom: "conv1"
  top: "norm1"
  lrn_param {
    local_size: 5
    alpha: 0.0001
    beta: 0.75
  }
}
layer {
  name: "pool1"
  type: "Pooling"
  bottom: "norm1"
  top: "pool1"
  pooling_param {
    pool: MAX
    kernel_size: 5
    stride: 3
  }
}
layer {
  name: "conv2"
  type: "Convolution"
  bottom: "pool1"
  top: "conv2"
  param {
    lr_mult: 1
    decay_mult: 1
  }
  param {
    lr_mult: 2
    decay_mult: 0
  }
  convolution_param {
    num_output: 256
    pad: 2
    kernel_size: 5
    group: 2
    weight_filler {
      type: "gaussian"
      std: 0.01
    }
    bias_filler {
      type: "constant"
      value: 0.1
    }
  }
}
layer {
  name: "relu2"
  type: "ReLU"
  bottom: "conv2"
  top: "conv2"
}
layer {
  name: "norm2"
  type: "LRN"
  bottom: "conv2"
  top: "norm2"
  lrn_param {
    local_size: 5
    alpha: 0.0001
    beta: 0.75
  }
}
layer {
  name: "pool2"
  type: "Pooling"
  bottom: "norm2"
  top: "pool2"
  pooling_param {
    pool: MAX
    kernel_size: 3
    stride: 2
  }
}
layer {
  name: "conv3"
  type: "Convolution"
  bottom: "pool2"
  top: "conv3"
  param {
    lr_mult: 1
    decay_mult: 1
  }
  param {
    lr_mult: 2
    decay_mult: 0
  }
  convolution_param {
    num_output: 384
    pad: 1
    kernel_size: 3
    weight_filler {
      type: "gaussian"
      std: 0.01
    }
    bias_filler {
      type: "constant"
      value: 0
    }
  }
}
layer {
  name: "relu3"
  type: "ReLU"
  bottom: "conv3"
  top: "conv3"
}
layer {
  name: "conv4"
  type: "Convolution"
  bottom: "conv3"
  top: "conv4"
  param {
    lr_mult: 1
    decay_mult: 1
  }
  param {
    lr_mult: 2
    decay_mult: 0
  }
  convolution_param {
    num_output: 384
    pad: 1
    kernel_size: 3
    group: 2
    weight_filler {
      type: "gaussian"
      std: 0.01
    }
    bias_filler {
      type: "constant"
      value: 0.1
    }
  }
}
layer {
  name: "relu4"
  type: "ReLU"
  bottom: "conv4"
  top: "conv4"
}
layer {
  name: "conv5"
  type: "Convolution"
  bottom: "conv4"
  top: "conv5"
  param {
    lr_mult: 1
    decay_mult: 1
  }
  param {
    lr_mult: 2
    decay_mult: 0
  }
  convolution_param {
    num_output: 256
    pad: 1
    kernel_size: 3
    group: 2
    weight_filler {
      type: "gaussian"
      std: 0.01
    }
    bias_filler {
      type: "constant"
      value: 0.1
    }
  }
}
layer {
  name: "relu5"
  type: "ReLU"
  bottom: "conv5"
  top: "conv5"
}
layer {
  name: "pool5"
  type: "Pooling"
  bottom: "conv5"
  top: "pool5"
  pooling_param {
    pool: MAX
    kernel_size: 3
    stride: 2
  }
}
layer {
  name: "fc6"
  type: "InnerProduct"
  bottom: "pool5"
  top: "fc6"
  param {
    lr_mult: 1
    decay_mult: 1
  }
  param {
    lr_mult: 2
    decay_mult: 0
  }
  inner_product_param {
    num_output: 4096
    weight_filler {
      type: "gaussian"
      std: 0.005
    }
    bias_filler {
      type: "constant"
      value: 0.1
    }
  }
}
layer {
  name: "relu6"
  type: "ReLU"
  bottom: "fc6"
  top: "fc6"
}
layer {
  name: "drop6"
  type: "Dropout"
  bottom: "fc6"
  top: "fc6"
  dropout_param {
    dropout_ratio: 0.5
  }
}
layer {
  name: "fc7"
  type: "InnerProduct"
  bottom: "fc6"
  top: "fc7"
  param {
    lr_mult: 1
    decay_mult: 1
  }
  param {
    lr_mult: 2
    decay_mult: 0
  }
  inner_product_param {
    num_output: 4096
    weight_filler {
      type: "gaussian"
      std: 0.005
    }
    bias_filler {
      type: "constant"
      value: 0.1
    }
  }
}
layer {
  name: "relu7"
  type: "ReLU"
  bottom: "fc7"
  top: "fc7"
}
layer {
  name: "drop7"
  type: "Dropout"
  bottom: "fc7"
  top: "fc7"
  dropout_param {
    dropout_ratio: 0.5
  }
}
layer {
  name: "fc8"
  type: "InnerProduct"
  bottom: "fc7"
  top: "fc8"
  param {
    lr_mult: 1
    decay_mult: 1
  }
  param {
    lr_mult: 2
    decay_mult: 0
  }
  inner_product_param {
    num_output: 1000
    weight_filler {
      type: "gaussian"
      std: 0.01
    }
    bias_filler {
      type: "constant"
      value: 0
    }
  }
}
layer {
  name: "loss"
  type: "SoftmaxWithLoss"
  bottom: "fc8"
  bottom: "label"
  top: "loss"
}
I0720 05:08:25.492141 73798 layer_factory.hpp:77] Creating layer data
I0720 05:08:25.539587 73798 db_lmdb.cpp:35] Opened lmdb /home/neuroShare/data/ImageNet/ILSVRC2012_data/ilsvrc12_train_lmdb
I0720 05:08:25.539680 73798 net.cpp:84] Creating Layer data
I0720 05:08:25.539710 73798 net.cpp:380] data -> data
I0720 05:08:25.539770 73798 net.cpp:380] data -> label
I0720 05:08:25.539808 73798 data_transformer.cpp:25] Loading mean file from: data/ilsvrc12/imagenet_mean.binaryproto
I0720 05:08:25.607486 73798 data_layer.cpp:45] output data size: 256,3,227,227
I0720 05:08:26.149022 73798 net.cpp:122] Setting up data
I0720 05:08:26.149091 73798 net.cpp:129] Top shape: 256 3 227 227 (39574272)
I0720 05:08:26.149099 73798 net.cpp:129] Top shape: 256 (256)
I0720 05:08:26.149103 73798 net.cpp:137] Memory required for data: 158298112
I0720 05:08:26.149121 73798 layer_factory.hpp:77] Creating layer conv1
I0720 05:08:26.149152 73798 net.cpp:84] Creating Layer conv1
I0720 05:08:26.149165 73798 net.cpp:406] conv1 <- data
I0720 05:08:26.149185 73798 net.cpp:380] conv1 -> conv1
I0720 05:08:26.152366 73798 net.cpp:122] Setting up conv1
I0720 05:08:26.152384 73798 net.cpp:129] Top shape: 256 96 55 55 (74342400)
I0720 05:08:26.152387 73798 net.cpp:137] Memory required for data: 455667712
I0720 05:08:26.152406 73798 layer_factory.hpp:77] Creating layer relu1
I0720 05:08:26.152418 73798 net.cpp:84] Creating Layer relu1
I0720 05:08:26.152423 73798 net.cpp:406] relu1 <- conv1
I0720 05:08:26.152431 73798 net.cpp:367] relu1 -> conv1 (in-place)
I0720 05:08:26.152443 73798 net.cpp:122] Setting up relu1
I0720 05:08:26.152449 73798 net.cpp:129] Top shape: 256 96 55 55 (74342400)
I0720 05:08:26.152452 73798 net.cpp:137] Memory required for data: 753037312
I0720 05:08:26.152456 73798 layer_factory.hpp:77] Creating layer norm1
I0720 05:08:26.152467 73798 net.cpp:84] Creating Layer norm1
I0720 05:08:26.152470 73798 net.cpp:406] norm1 <- conv1
I0720 05:08:26.152477 73798 net.cpp:380] norm1 -> norm1
I0720 05:08:26.152534 73798 net.cpp:122] Setting up norm1
I0720 05:08:26.152542 73798 net.cpp:129] Top shape: 256 96 55 55 (74342400)
I0720 05:08:26.152546 73798 net.cpp:137] Memory required for data: 1050406912
I0720 05:08:26.152550 73798 layer_factory.hpp:77] Creating layer pool1
I0720 05:08:26.152581 73798 net.cpp:84] Creating Layer pool1
I0720 05:08:26.152587 73798 net.cpp:406] pool1 <- norm1
I0720 05:08:26.152595 73798 net.cpp:380] pool1 -> pool1
I0720 05:08:26.152644 73798 net.cpp:122] Setting up pool1
I0720 05:08:26.152653 73798 net.cpp:129] Top shape: 256 96 18 18 (7962624)
I0720 05:08:26.152659 73798 net.cpp:137] Memory required for data: 1082257408
I0720 05:08:26.152663 73798 layer_factory.hpp:77] Creating layer conv2
I0720 05:08:26.152675 73798 net.cpp:84] Creating Layer conv2
I0720 05:08:26.152680 73798 net.cpp:406] conv2 <- pool1
I0720 05:08:26.152700 73798 net.cpp:380] conv2 -> conv2
I0720 05:08:26.180281 73798 net.cpp:122] Setting up conv2
I0720 05:08:26.180301 73798 net.cpp:129] Top shape: 256 256 18 18 (21233664)
I0720 05:08:26.180306 73798 net.cpp:137] Memory required for data: 1167192064
I0720 05:08:26.180318 73798 layer_factory.hpp:77] Creating layer relu2
I0720 05:08:26.180327 73798 net.cpp:84] Creating Layer relu2
I0720 05:08:26.180332 73798 net.cpp:406] relu2 <- conv2
I0720 05:08:26.180338 73798 net.cpp:367] relu2 -> conv2 (in-place)
I0720 05:08:26.180347 73798 net.cpp:122] Setting up relu2
I0720 05:08:26.180353 73798 net.cpp:129] Top shape: 256 256 18 18 (21233664)
I0720 05:08:26.180356 73798 net.cpp:137] Memory required for data: 1252126720
I0720 05:08:26.180361 73798 layer_factory.hpp:77] Creating layer norm2
I0720 05:08:26.180367 73798 net.cpp:84] Creating Layer norm2
I0720 05:08:26.180371 73798 net.cpp:406] norm2 <- conv2
I0720 05:08:26.180377 73798 net.cpp:380] norm2 -> norm2
I0720 05:08:26.180421 73798 net.cpp:122] Setting up norm2
I0720 05:08:26.180429 73798 net.cpp:129] Top shape: 256 256 18 18 (21233664)
I0720 05:08:26.180433 73798 net.cpp:137] Memory required for data: 1337061376
I0720 05:08:26.180436 73798 layer_factory.hpp:77] Creating layer pool2
I0720 05:08:26.180445 73798 net.cpp:84] Creating Layer pool2
I0720 05:08:26.180452 73798 net.cpp:406] pool2 <- norm2
I0720 05:08:26.180459 73798 net.cpp:380] pool2 -> pool2
I0720 05:08:26.180495 73798 net.cpp:122] Setting up pool2
I0720 05:08:26.180500 73798 net.cpp:129] Top shape: 256 256 9 9 (5308416)
I0720 05:08:26.180503 73798 net.cpp:137] Memory required for data: 1358295040
I0720 05:08:26.180507 73798 layer_factory.hpp:77] Creating layer conv3
I0720 05:08:26.180519 73798 net.cpp:84] Creating Layer conv3
I0720 05:08:26.180524 73798 net.cpp:406] conv3 <- pool2
I0720 05:08:26.180532 73798 net.cpp:380] conv3 -> conv3
I0720 05:08:26.214316 73798 net.cpp:122] Setting up conv3
I0720 05:08:26.214334 73798 net.cpp:129] Top shape: 256 384 9 9 (7962624)
I0720 05:08:26.214337 73798 net.cpp:137] Memory required for data: 1390145536
I0720 05:08:26.214349 73798 layer_factory.hpp:77] Creating layer relu3
I0720 05:08:26.214355 73798 net.cpp:84] Creating Layer relu3
I0720 05:08:26.214359 73798 net.cpp:406] relu3 <- conv3
I0720 05:08:26.214366 73798 net.cpp:367] relu3 -> conv3 (in-place)
I0720 05:08:26.214373 73798 net.cpp:122] Setting up relu3
I0720 05:08:26.214378 73798 net.cpp:129] Top shape: 256 384 9 9 (7962624)
I0720 05:08:26.214381 73798 net.cpp:137] Memory required for data: 1421996032
I0720 05:08:26.214385 73798 layer_factory.hpp:77] Creating layer conv4
I0720 05:08:26.214395 73798 net.cpp:84] Creating Layer conv4
I0720 05:08:26.214397 73798 net.cpp:406] conv4 <- conv3
I0720 05:08:26.214404 73798 net.cpp:380] conv4 -> conv4
I0720 05:08:26.240835 73798 net.cpp:122] Setting up conv4
I0720 05:08:26.240852 73798 net.cpp:129] Top shape: 256 384 9 9 (7962624)
I0720 05:08:26.240856 73798 net.cpp:137] Memory required for data: 1453846528
I0720 05:08:26.240864 73798 layer_factory.hpp:77] Creating layer relu4
I0720 05:08:26.240871 73798 net.cpp:84] Creating Layer relu4
I0720 05:08:26.240875 73798 net.cpp:406] relu4 <- conv4
I0720 05:08:26.240882 73798 net.cpp:367] relu4 -> conv4 (in-place)
I0720 05:08:26.240890 73798 net.cpp:122] Setting up relu4
I0720 05:08:26.240895 73798 net.cpp:129] Top shape: 256 384 9 9 (7962624)
I0720 05:08:26.240898 73798 net.cpp:137] Memory required for data: 1485697024
I0720 05:08:26.240901 73798 layer_factory.hpp:77] Creating layer conv5
I0720 05:08:26.240931 73798 net.cpp:84] Creating Layer conv5
I0720 05:08:26.240936 73798 net.cpp:406] conv5 <- conv4
I0720 05:08:26.240943 73798 net.cpp:380] conv5 -> conv5
I0720 05:08:26.257843 73798 net.cpp:122] Setting up conv5
I0720 05:08:26.257858 73798 net.cpp:129] Top shape: 256 256 9 9 (5308416)
I0720 05:08:26.257861 73798 net.cpp:137] Memory required for data: 1506930688
I0720 05:08:26.257872 73798 layer_factory.hpp:77] Creating layer relu5
I0720 05:08:26.257880 73798 net.cpp:84] Creating Layer relu5
I0720 05:08:26.257884 73798 net.cpp:406] relu5 <- conv5
I0720 05:08:26.257891 73798 net.cpp:367] relu5 -> conv5 (in-place)
I0720 05:08:26.257899 73798 net.cpp:122] Setting up relu5
I0720 05:08:26.257903 73798 net.cpp:129] Top shape: 256 256 9 9 (5308416)
I0720 05:08:26.257906 73798 net.cpp:137] Memory required for data: 1528164352
I0720 05:08:26.257910 73798 layer_factory.hpp:77] Creating layer pool5
I0720 05:08:26.257916 73798 net.cpp:84] Creating Layer pool5
I0720 05:08:26.257920 73798 net.cpp:406] pool5 <- conv5
I0720 05:08:26.257925 73798 net.cpp:380] pool5 -> pool5
I0720 05:08:26.257963 73798 net.cpp:122] Setting up pool5
I0720 05:08:26.257972 73798 net.cpp:129] Top shape: 256 256 4 4 (1048576)
I0720 05:08:26.257974 73798 net.cpp:137] Memory required for data: 1532358656
I0720 05:08:26.257977 73798 layer_factory.hpp:77] Creating layer fc6
I0720 05:08:26.257993 73798 net.cpp:84] Creating Layer fc6
I0720 05:08:26.258000 73798 net.cpp:406] fc6 <- pool5
I0720 05:08:26.258008 73798 net.cpp:380] fc6 -> fc6
I0720 05:08:26.826340 73798 net.cpp:122] Setting up fc6
I0720 05:08:26.826373 73798 net.cpp:129] Top shape: 256 4096 (1048576)
I0720 05:08:26.826376 73798 net.cpp:137] Memory required for data: 1536552960
I0720 05:08:26.826387 73798 layer_factory.hpp:77] Creating layer relu6
I0720 05:08:26.826400 73798 net.cpp:84] Creating Layer relu6
I0720 05:08:26.826406 73798 net.cpp:406] relu6 <- fc6
I0720 05:08:26.826414 73798 net.cpp:367] relu6 -> fc6 (in-place)
I0720 05:08:26.826422 73798 net.cpp:122] Setting up relu6
I0720 05:08:26.826426 73798 net.cpp:129] Top shape: 256 4096 (1048576)
I0720 05:08:26.826428 73798 net.cpp:137] Memory required for data: 1540747264
I0720 05:08:26.826431 73798 layer_factory.hpp:77] Creating layer drop6
I0720 05:08:26.826442 73798 net.cpp:84] Creating Layer drop6
I0720 05:08:26.826444 73798 net.cpp:406] drop6 <- fc6
I0720 05:08:26.826448 73798 net.cpp:367] drop6 -> fc6 (in-place)
I0720 05:08:26.826472 73798 net.cpp:122] Setting up drop6
I0720 05:08:26.826491 73798 net.cpp:129] Top shape: 256 4096 (1048576)
I0720 05:08:26.826494 73798 net.cpp:137] Memory required for data: 1544941568
I0720 05:08:26.826509 73798 layer_factory.hpp:77] Creating layer fc7
I0720 05:08:26.826519 73798 net.cpp:84] Creating Layer fc7
I0720 05:08:26.826521 73798 net.cpp:406] fc7 <- fc6
I0720 05:08:26.826527 73798 net.cpp:380] fc7 -> fc7
I0720 05:08:27.329502 73798 net.cpp:122] Setting up fc7
I0720 05:08:27.329535 73798 net.cpp:129] Top shape: 256 4096 (1048576)
I0720 05:08:27.329540 73798 net.cpp:137] Memory required for data: 1549135872
I0720 05:08:27.329548 73798 layer_factory.hpp:77] Creating layer relu7
I0720 05:08:27.329560 73798 net.cpp:84] Creating Layer relu7
I0720 05:08:27.329563 73798 net.cpp:406] relu7 <- fc7
I0720 05:08:27.329571 73798 net.cpp:367] relu7 -> fc7 (in-place)
I0720 05:08:27.329581 73798 net.cpp:122] Setting up relu7
I0720 05:08:27.329584 73798 net.cpp:129] Top shape: 256 4096 (1048576)
I0720 05:08:27.329586 73798 net.cpp:137] Memory required for data: 1553330176
I0720 05:08:27.329589 73798 layer_factory.hpp:77] Creating layer drop7
I0720 05:08:27.329596 73798 net.cpp:84] Creating Layer drop7
I0720 05:08:27.329598 73798 net.cpp:406] drop7 <- fc7
I0720 05:08:27.329603 73798 net.cpp:367] drop7 -> fc7 (in-place)
I0720 05:08:27.329618 73798 net.cpp:122] Setting up drop7
I0720 05:08:27.329623 73798 net.cpp:129] Top shape: 256 4096 (1048576)
I0720 05:08:27.329627 73798 net.cpp:137] Memory required for data: 1557524480
I0720 05:08:27.329628 73798 layer_factory.hpp:77] Creating layer fc8
I0720 05:08:27.329660 73798 net.cpp:84] Creating Layer fc8
I0720 05:08:27.329665 73798 net.cpp:406] fc8 <- fc7
I0720 05:08:27.329684 73798 net.cpp:380] fc8 -> fc8
I0720 05:08:27.446264 73798 net.cpp:122] Setting up fc8
I0720 05:08:27.446295 73798 net.cpp:129] Top shape: 256 1000 (256000)
I0720 05:08:27.446298 73798 net.cpp:137] Memory required for data: 1558548480
I0720 05:08:27.446307 73798 layer_factory.hpp:77] Creating layer loss
I0720 05:08:27.446322 73798 net.cpp:84] Creating Layer loss
I0720 05:08:27.446327 73798 net.cpp:406] loss <- fc8
I0720 05:08:27.446333 73798 net.cpp:406] loss <- label
I0720 05:08:27.446341 73798 net.cpp:380] loss -> loss
I0720 05:08:27.446374 73798 layer_factory.hpp:77] Creating layer loss
…
I0720 05:08:27.448426 73798 net.cpp:294] The NetState phase (1) differed from the phase (0) specified by a rule in layer data
I0720 05:08:27.448657 73798 net.cpp:51] Initializing net from parameters: 
name: "AlexNet"
state {
  phase: TEST
}
layer {
  name: "data"
  type: "Data"
  top: "data"
  top: "label"
  include {
    phase: TEST
  }
  transform_param {
    mirror: false
    crop_size: 227
    mean_file: "data/ilsvrc12/imagenet_mean.binaryproto"
  }
  data_param {
    source: "/home/neuroShare/data/ImageNet/ILSVRC2012_data/ilsvrc12_val_lmdb"
    batch_size: 50
    backend: LMDB
  }
}
layer {
  name: "conv1"
  type: "Convolution"
  bottom: "data"
  top: "conv1"
  param {
    lr_mult: 1
    decay_mult: 1
  }
  param {
    lr_mult: 2
    decay_mult: 0
  }
  convolution_param {
    num_output: 96
    kernel_size: 11
    stride: 4
    weight_filler {
      type: "gaussian"
      std: 0.01
    }
    bias_filler {
      type: "constant"
      value: 0
    }
  }
}
layer {
  name: "relu1"
  type: "ReLU"
  bottom: "conv1"
  top: "conv1"
}
layer {
  name: "norm1"
  type: "LRN"
  bottom: "conv1"
  top: "norm1"
  lrn_param {
    local_size: 5
    alpha: 0.0001
    beta: 0.75
  }
}
layer {
  name: "pool1"
  type: "Pooling"
  bottom: "norm1"
  top: "pool1"
  pooling_param {
    pool: MAX
    kernel_size: 5
    stride: 3
  }
}
layer {
  name: "conv2"
  type: "Convolution"
  bottom: "pool1"
  top: "conv2"
  param {
    lr_mult: 1
    decay_mult: 1
  }
  param {
    lr_mult: 2
    decay_mult: 0
  }
  convolution_param {
    num_output: 256
    pad: 2
    kernel_size: 5
    group: 2
    weight_filler {
      type: "gaussian"
      std: 0.01
    }
    bias_filler {
      type: "constant"
      value: 0.1
    }
  }
}
layer {
  name: "relu2"
  type: "ReLU"
  bottom: "conv2"
  top: "conv2"
}
layer {
  name: "norm2"
  type: "LRN"
  bottom: "conv2"
  top: "norm2"
  lrn_param {
    local_size: 5
    alpha: 0.0001
    beta: 0.75
  }
}
layer {
  name: "pool2"
  type: "Pooling"
  bottom: "norm2"
  top: "pool2"
  pooling_param {
    pool: MAX
    kernel_size: 3
    stride: 2
  }
}
layer {
  name: "conv3"
  type: "Convolution"
  bottom: "pool2"
  top: "conv3"
  param {
    lr_mult: 1
    decay_mult: 1
  }
  param {
    lr_mult: 2
    decay_mult: 0
  }
  convolution_param {
    num_output: 384
    pad: 1
    kernel_size: 3
    weight_filler {
      type: "gaussian"
      std: 0.01
    }
    bias_filler {
      type: "constant"
      value: 0
    }
  }
}
layer {
  name: "relu3"
  type: "ReLU"
  bottom: "conv3"
  top: "conv3"
}
layer {
  name: "conv4"
  type: "Convolution"
  bottom: "conv3"
  top: "conv4"
  param {
    lr_mult: 1
    decay_mult: 1
  }
  param {
    lr_mult: 2
    decay_mult: 0
  }
  convolution_param {
    num_output: 384
    pad: 1
    kernel_size: 3
    group: 2
    weight_filler {
      type: "gaussian"
      std: 0.01
    }
    bias_filler {
      type: "constant"
      value: 0.1
    }
  }
}
layer {
  name: "relu4"
  type: "ReLU"
  bottom: "conv4"
  top: "conv4"
}
layer {
  name: "conv5"
  type: "Convolution"
  bottom: "conv4"
  top: "conv5"
  param {
    lr_mult: 1
    decay_mult: 1
  }
  param {
    lr_mult: 2
    decay_mult: 0
  }
  convolution_param {
    num_output: 256
    pad: 1
    kernel_size: 3
    group: 2
    weight_filler {
      type: "gaussian"
      std: 0.01
    }
    bias_filler {
      type: "constant"
      value: 0.1
    }
  }
}
layer {
  name: "relu5"
  type: "ReLU"
  bottom: "conv5"
  top: "conv5"
}
layer {
  name: "pool5"
  type: "Pooling"
  bottom: "conv5"
  top: "pool5"
  pooling_param {
    pool: MAX
    kernel_size: 3
    stride: 2
  }
}
layer {
  name: "fc6"
  type: "InnerProduct"
  bottom: "pool5"
  top: "fc6"
  param {
    lr_mult: 1
    decay_mult: 1
  }
  param {
    lr_mult: 2
    decay_mult: 0
  }
  inner_product_param {
    num_output: 4096
    weight_filler {
      type: "gaussian"
      std: 0.005
    }
    bias_filler {
      type: "constant"
      value: 0.1
    }
  }
}
layer {
  name: "relu6"
  type: "ReLU"
  bottom: "fc6"
  top: "fc6"
}
layer {
  name: "drop6"
  type: "Dropout"
  bottom: "fc6"
  top: "fc6"
  dropout_param {
    dropout_ratio: 0.5
  }
}
layer {
  name: "fc7"
  type: "InnerProduct"
  bottom: "fc6"
  top: "fc7"
  param {
    lr_mult: 1
    decay_mult: 1
  }
  param {
    lr_mult: 2
    decay_mult: 0
  }
  inner_product_param {
    num_output: 4096
    weight_filler {
      type: "gaussian"
      std: 0.005
    }
    bias_filler {
      type: "constant"
      value: 0.1
    }
  }
}
layer {
  name: "relu7"
  type: "ReLU"
  bottom: "fc7"
  top: "fc7"
}
layer {
  name: "drop7"
  type: "Dropout"
  bottom: "fc7"
  top: "fc7"
  dropout_param {
    dropout_ratio: 0.5
  }
}
layer {
  name: "fc8"
  type: "InnerProduct"
  bottom: "fc7"
  top: "fc8"
  param {
    lr_mult: 1
    decay_mult: 1
  }
  param {
    lr_mult: 2
    decay_mult: 0
  }
  inner_product_param {
    num_output: 1000
    weight_filler {
      type: "gaussian"
      std: 0.01
    }
    bias_filler {
      type: "constant"
      value: 0
    }
  }
}
layer {
  name: "accuracy"
  type: "Accuracy"
  bottom: "fc8"
  bottom: "label"
  top: "accuracy"
  include {
    phase: TEST
  }
}
layer {
  name: "loss"
  type: "SoftmaxWithLoss"
  bottom: "fc8"
  bottom: "label"
  top: "loss"
}
I0720 05:08:27.448825 73798 layer_factory.hpp:77] Creating layer data
I0720 05:08:27.448917 73798 db_lmdb.cpp:35] Opened lmdb /home/neuroShare/data/ImageNet/ILSVRC2012_data/ilsvrc12_val_lmdb
I0720 05:08:27.448936 73798 net.cpp:84] Creating Layer data
I0720 05:08:27.448943 73798 net.cpp:380] data -> data
I0720 05:08:27.448953 73798 net.cpp:380] data -> label
I0720 05:08:27.448961 73798 data_transformer.cpp:25] Loading mean file from: data/ilsvrc12/imagenet_mean.binaryproto
I0720 05:08:27.451409 73798 data_layer.cpp:45] output data size: 50,3,227,227
I0720 05:08:27.537134 73798 net.cpp:122] Setting up data
I0720 05:08:27.537170 73798 net.cpp:129] Top shape: 50 3 227 227 (7729350)
I0720 05:08:27.537176 73798 net.cpp:129] Top shape: 50 (50)
I0720 05:08:27.537179 73798 net.cpp:137] Memory required for data: 30917600
I0720 05:08:27.537185 73798 layer_factory.hpp:77] Creating layer label_data_1_split
I0720 05:08:27.537209 73798 net.cpp:84] Creating Layer label_data_1_split
I0720 05:08:27.537214 73798 net.cpp:406] label_data_1_split <- label
I0720 05:08:27.537221 73798 net.cpp:380] label_data_1_split -> label_data_1_split_0
I0720 05:08:27.537232 73798 net.cpp:380] label_data_1_split -> label_data_1_split_1
I0720 05:08:27.537292 73798 net.cpp:122] Setting up label_data_1_split
I0720 05:08:27.537300 73798 net.cpp:129] Top shape: 50 (50)
I0720 05:08:27.537304 73798 net.cpp:129] Top shape: 50 (50)
I0720 05:08:27.537307 73798 net.cpp:137] Memory required for data: 30918000
I0720 05:08:27.537310 73798 layer_factory.hpp:77] Creating layer conv1
I0720 05:08:27.537325 73798 net.cpp:84] Creating Layer conv1
I0720 05:08:27.537331 73798 net.cpp:406] conv1 <- data
I0720 05:08:27.537349 73798 net.cpp:380] conv1 -> conv1
I0720 05:08:27.538631 73798 net.cpp:122] Setting up conv1
I0720 05:08:27.538641 73798 net.cpp:129] Top shape: 50 96 55 55 (14520000)
I0720 05:08:27.538643 73798 net.cpp:137] Memory required for data: 88998000
I0720 05:08:27.538652 73798 layer_factory.hpp:77] Creating layer relu1
I0720 05:08:27.538658 73798 net.cpp:84] Creating Layer relu1
I0720 05:08:27.538661 73798 net.cpp:406] relu1 <- conv1
I0720 05:08:27.538666 73798 net.cpp:367] relu1 -> conv1 (in-place)
I0720 05:08:27.538672 73798 net.cpp:122] Setting up relu1
I0720 05:08:27.538676 73798 net.cpp:129] Top shape: 50 96 55 55 (14520000)
I0720 05:08:27.538678 73798 net.cpp:137] Memory required for data: 147078000
I0720 05:08:27.538681 73798 layer_factory.hpp:77] Creating layer norm1
I0720 05:08:27.538688 73798 net.cpp:84] Creating Layer norm1
I0720 05:08:27.538691 73798 net.cpp:406] norm1 <- conv1
I0720 05:08:27.538697 73798 net.cpp:380] norm1 -> norm1
I0720 05:08:27.538738 73798 net.cpp:122] Setting up norm1
I0720 05:08:27.538745 73798 net.cpp:129] Top shape: 50 96 55 55 (14520000)
I0720 05:08:27.538758 73798 net.cpp:137] Memory required for data: 205158000
I0720 05:08:27.538761 73798 layer_factory.hpp:77] Creating layer pool1
I0720 05:08:27.538769 73798 net.cpp:84] Creating Layer pool1
I0720 05:08:27.538771 73798 net.cpp:406] pool1 <- norm1
I0720 05:08:27.538777 73798 net.cpp:380] pool1 -> pool1
I0720 05:08:27.538808 73798 net.cpp:122] Setting up pool1
I0720 05:08:27.538815 73798 net.cpp:129] Top shape: 50 96 18 18 (1555200)
I0720 05:08:27.538817 73798 net.cpp:137] Memory required for data: 211378800
I0720 05:08:27.538820 73798 layer_factory.hpp:77] Creating layer conv2
I0720 05:08:27.538830 73798 net.cpp:84] Creating Layer conv2
I0720 05:08:27.538832 73798 net.cpp:406] conv2 <- pool1
I0720 05:08:27.538837 73798 net.cpp:380] conv2 -> conv2
I0720 05:08:27.548151 73798 net.cpp:122] Setting up conv2
I0720 05:08:27.548176 73798 net.cpp:129] Top shape: 50 256 18 18 (4147200)
I0720 05:08:27.548178 73798 net.cpp:137] Memory required for data: 227967600
I0720 05:08:27.548189 73798 layer_factory.hpp:77] Creating layer relu2
I0720 05:08:27.548197 73798 net.cpp:84] Creating Layer relu2
I0720 05:08:27.548202 73798 net.cpp:406] relu2 <- conv2
I0720 05:08:27.548238 73798 net.cpp:367] relu2 -> conv2 (in-place)
I0720 05:08:27.548245 73798 net.cpp:122] Setting up relu2
I0720 05:08:27.548249 73798 net.cpp:129] Top shape: 50 256 18 18 (4147200)
I0720 05:08:27.548251 73798 net.cpp:137] Memory required for data: 244556400
I0720 05:08:27.548254 73798 layer_factory.hpp:77] Creating layer norm2
I0720 05:08:27.548261 73798 net.cpp:84] Creating Layer norm2
I0720 05:08:27.548264 73798 net.cpp:406] norm2 <- conv2
I0720 05:08:27.548269 73798 net.cpp:380] norm2 -> norm2
I0720 05:08:27.548317 73798 net.cpp:122] Setting up norm2
I0720 05:08:27.548324 73798 net.cpp:129] Top shape: 50 256 18 18 (4147200)
I0720 05:08:27.548327 73798 net.cpp:137] Memory required for data: 261145200
I0720 05:08:27.548331 73798 layer_factory.hpp:77] Creating layer pool2
I0720 05:08:27.548336 73798 net.cpp:84] Creating Layer pool2
I0720 05:08:27.548339 73798 net.cpp:406] pool2 <- norm2
I0720 05:08:27.548344 73798 net.cpp:380] pool2 -> pool2
I0720 05:08:27.548374 73798 net.cpp:122] Setting up pool2
I0720 05:08:27.548380 73798 net.cpp:129] Top shape: 50 256 9 9 (1036800)
I0720 05:08:27.548382 73798 net.cpp:137] Memory required for data: 265292400
I0720 05:08:27.548385 73798 layer_factory.hpp:77] Creating layer conv3
I0720 05:08:27.548395 73798 net.cpp:84] Creating Layer conv3
I0720 05:08:27.548398 73798 net.cpp:406] conv3 <- pool2
I0720 05:08:27.548404 73798 net.cpp:380] conv3 -> conv3
I0720 05:08:27.573995 73798 net.cpp:122] Setting up conv3
I0720 05:08:27.574023 73798 net.cpp:129] Top shape: 50 384 9 9 (1555200)
I0720 05:08:27.574026 73798 net.cpp:137] Memory required for data: 271513200
I0720 05:08:27.574035 73798 layer_factory.hpp:77] Creating layer relu3
I0720 05:08:27.574043 73798 net.cpp:84] Creating Layer relu3
I0720 05:08:27.574046 73798 net.cpp:406] relu3 <- conv3
I0720 05:08:27.574051 73798 net.cpp:367] relu3 -> conv3 (in-place)
I0720 05:08:27.574059 73798 net.cpp:122] Setting up relu3
I0720 05:08:27.574062 73798 net.cpp:129] Top shape: 50 384 9 9 (1555200)
I0720 05:08:27.574064 73798 net.cpp:137] Memory required for data: 277734000
I0720 05:08:27.574067 73798 layer_factory.hpp:77] Creating layer conv4
I0720 05:08:27.574077 73798 net.cpp:84] Creating Layer conv4
I0720 05:08:27.574080 73798 net.cpp:406] conv4 <- conv3
I0720 05:08:27.574085 73798 net.cpp:380] conv4 -> conv4
I0720 05:08:27.593279 73798 net.cpp:122] Setting up conv4
I0720 05:08:27.593296 73798 net.cpp:129] Top shape: 50 384 9 9 (1555200)
I0720 05:08:27.593298 73798 net.cpp:137] Memory required for data: 283954800
I0720 05:08:27.593304 73798 layer_factory.hpp:77] Creating layer relu4
I0720 05:08:27.593310 73798 net.cpp:84] Creating Layer relu4
I0720 05:08:27.593313 73798 net.cpp:406] relu4 <- conv4
I0720 05:08:27.593318 73798 net.cpp:367] relu4 -> conv4 (in-place)
I0720 05:08:27.593324 73798 net.cpp:122] Setting up relu4
I0720 05:08:27.593328 73798 net.cpp:129] Top shape: 50 384 9 9 (1555200)
I0720 05:08:27.593330 73798 net.cpp:137] Memory required for data: 290175600
I0720 05:08:27.593333 73798 layer_factory.hpp:77] Creating layer conv5
I0720 05:08:27.593341 73798 net.cpp:84] Creating Layer conv5
I0720 05:08:27.593344 73798 net.cpp:406] conv5 <- conv4
I0720 05:08:27.593350 73798 net.cpp:380] conv5 -> conv5
I0720 05:08:27.606259 73798 net.cpp:122] Setting up conv5
I0720 05:08:27.606276 73798 net.cpp:129] Top shape: 50 256 9 9 (1036800)
I0720 05:08:27.606278 73798 net.cpp:137] Memory required for data: 294322800
I0720 05:08:27.606288 73798 layer_factory.hpp:77] Creating layer relu5
I0720 05:08:27.606294 73798 net.cpp:84] Creating Layer relu5
I0720 05:08:27.606298 73798 net.cpp:406] relu5 <- conv5
I0720 05:08:27.606303 73798 net.cpp:367] relu5 -> conv5 (in-place)
I0720 05:08:27.606309 73798 net.cpp:122] Setting up relu5
I0720 05:08:27.606313 73798 net.cpp:129] Top shape: 50 256 9 9 (1036800)
I0720 05:08:27.606315 73798 net.cpp:137] Memory required for data: 298470000
I0720 05:08:27.606317 73798 layer_factory.hpp:77] Creating layer pool5
I0720 05:08:27.606324 73798 net.cpp:84] Creating Layer pool5
I0720 05:08:27.606328 73798 net.cpp:406] pool5 <- conv5
I0720 05:08:27.606348 73798 net.cpp:380] pool5 -> pool5
I0720 05:08:27.606395 73798 net.cpp:122] Setting up pool5
I0720 05:08:27.606402 73798 net.cpp:129] Top shape: 50 256 4 4 (204800)
I0720 05:08:27.606405 73798 net.cpp:137] Memory required for data: 299289200
I0720 05:08:27.606407 73798 layer_factory.hpp:77] Creating layer fc6
I0720 05:08:27.606416 73798 net.cpp:84] Creating Layer fc6
I0720 05:08:27.606421 73798 net.cpp:406] fc6 <- pool5
I0720 05:08:27.606438 73798 net.cpp:380] fc6 -> fc6
I0720 05:08:28.082474 73798 net.cpp:122] Setting up fc6
I0720 05:08:28.082507 73798 net.cpp:129] Top shape: 50 4096 (204800)
I0720 05:08:28.082511 73798 net.cpp:137] Memory required for data: 300108400
I0720 05:08:28.082520 73798 layer_factory.hpp:77] Creating layer relu6
I0720 05:08:28.082530 73798 net.cpp:84] Creating Layer relu6
I0720 05:08:28.082535 73798 net.cpp:406] relu6 <- fc6
I0720 05:08:28.082542 73798 net.cpp:367] relu6 -> fc6 (in-place)
I0720 05:08:28.082551 73798 net.cpp:122] Setting up relu6
I0720 05:08:28.082554 73798 net.cpp:129] Top shape: 50 4096 (204800)
I0720 05:08:28.082557 73798 net.cpp:137] Memory required for data: 300927600
I0720 05:08:28.082559 73798 layer_factory.hpp:77] Creating layer drop6
I0720 05:08:28.082566 73798 net.cpp:84] Creating Layer drop6
I0720 05:08:28.082569 73798 net.cpp:406] drop6 <- fc6
I0720 05:08:28.082574 73798 net.cpp:367] drop6 -> fc6 (in-place)
I0720 05:08:28.082598 73798 net.cpp:122] Setting up drop6
I0720 05:08:28.082605 73798 net.cpp:129] Top shape: 50 4096 (204800)
I0720 05:08:28.082619 73798 net.cpp:137] Memory required for data: 301746800
I0720 05:08:28.082623 73798 layer_factory.hpp:77] Creating layer fc7
I0720 05:08:28.082641 73798 net.cpp:84] Creating Layer fc7
I0720 05:08:28.082644 73798 net.cpp:406] fc7 <- fc6
I0720 05:08:28.082650 73798 net.cpp:380] fc7 -> fc7
I0720 05:08:28.557098 73798 net.cpp:122] Setting up fc7
I0720 05:08:28.557133 73798 net.cpp:129] Top shape: 50 4096 (204800)
I0720 05:08:28.557137 73798 net.cpp:137] Memory required for data: 302566000
I0720 05:08:28.557147 73798 layer_factory.hpp:77] Creating layer relu7
I0720 05:08:28.557157 73798 net.cpp:84] Creating Layer relu7
I0720 05:08:28.557162 73798 net.cpp:406] relu7 <- fc7
I0720 05:08:28.557168 73798 net.cpp:367] relu7 -> fc7 (in-place)
I0720 05:08:28.557176 73798 net.cpp:122] Setting up relu7
I0720 05:08:28.557180 73798 net.cpp:129] Top shape: 50 4096 (204800)
I0720 05:08:28.557183 73798 net.cpp:137] Memory required for data: 303385200
I0720 05:08:28.557185 73798 layer_factory.hpp:77] Creating layer drop7
I0720 05:08:28.557191 73798 net.cpp:84] Creating Layer drop7
I0720 05:08:28.557194 73798 net.cpp:406] drop7 <- fc7
I0720 05:08:28.557199 73798 net.cpp:367] drop7 -> fc7 (in-place)
I0720 05:08:28.557224 73798 net.cpp:122] Setting up drop7
I0720 05:08:28.557229 73798 net.cpp:129] Top shape: 50 4096 (204800)
I0720 05:08:28.557243 73798 net.cpp:137] Memory required for data: 304204400
I0720 05:08:28.557246 73798 layer_factory.hpp:77] Creating layer fc8
I0720 05:08:28.557266 73798 net.cpp:84] Creating Layer fc8
I0720 05:08:28.557271 73798 net.cpp:406] fc8 <- fc7
I0720 05:08:28.557277 73798 net.cpp:380] fc8 -> fc8
I0720 05:08:28.673300 73798 net.cpp:122] Setting up fc8
I0720 05:08:28.673331 73798 net.cpp:129] Top shape: 50 1000 (50000)
I0720 05:08:28.673334 73798 net.cpp:137] Memory required for data: 304404400
I0720 05:08:28.673342 73798 layer_factory.hpp:77] Creating layer fc8_fc8_0_split
I0720 05:08:28.673352 73798 net.cpp:84] Creating Layer fc8_fc8_0_split
I0720 05:08:28.673357 73798 net.cpp:406] fc8_fc8_0_split <- fc8
I0720 05:08:28.673364 73798 net.cpp:380] fc8_fc8_0_split -> fc8_fc8_0_split_0
I0720 05:08:28.673372 73798 net.cpp:380] fc8_fc8_0_split -> fc8_fc8_0_split_1
I0720 05:08:28.673409 73798 net.cpp:122] Setting up fc8_fc8_0_split
I0720 05:08:28.673418 73798 net.cpp:129] Top shape: 50 1000 (50000)
I0720 05:08:28.673434 73798 net.cpp:129] Top shape: 50 1000 (50000)
I0720 05:08:28.673435 73798 net.cpp:137] Memory required for data: 304804400
I0720 05:08:28.673439 73798 layer_factory.hpp:77] Creating layer accuracy
I0720 05:08:28.673487 73798 net.cpp:84] Creating Layer accuracy
I0720 05:08:28.673491 73798 net.cpp:406] accuracy <- fc8_fc8_0_split_0
I0720 05:08:28.673496 73798 net.cpp:406] accuracy <- label_data_1_split_0
I0720 05:08:28.673502 73798 net.cpp:380] accuracy -> accuracy
…
