…
I0715 22:58:56.991539 112908 net.cpp:294] The NetState phase (0) differed from the phase (1) specified by a rule in layer accuracy
I0715 22:58:56.991770 112908 net.cpp:51] Initializing net from parameters: 
name: "AlexNet"
state {
  phase: TRAIN
  level: 0
  stage: ""
}
layer {
  name: "data"
  type: "Data"
  top: "data"
  top: "label"
  include {
    phase: TRAIN
  }
  transform_param {
    mirror: true
    crop_size: 227
    mean_file: "data/ilsvrc12/imagenet_mean.binaryproto"
  }
  data_param {
    source: "/home/neuroShare/data/ImageNet/ILSVRC2012_data/ilsvrc12_train_lmdb"
    batch_size: 128
    backend: LMDB
  }
}
layer {
  name: "conv1"
  type: "Convolution"
  bottom: "data"
  top: "conv1"
  param {
    lr_mult: 1
    decay_mult: 1
  }
  param {
    lr_mult: 2
    decay_mult: 0
  }
  convolution_param {
    num_output: 96
    kernel_size: 11
    stride: 2
    weight_filler {
      type: "gaussian"
      std: 0.01
    }
    bias_filler {
      type: "constant"
      value: 0
    }
  }
}
layer {
  name: "relu1"
  type: "ReLU"
  bottom: "conv1"
  top: "conv1"
}
layer {
  name: "norm1"
  type: "LRN"
  bottom: "conv1"
  top: "norm1"
  lrn_param {
    local_size: 5
    alpha: 0.0001
    beta: 0.75
  }
}
layer {
  name: "pool1"
  type: "Pooling"
  bottom: "norm1"
  top: "pool1"
  pooling_param {
    pool: MAX
    kernel_size: 7
    stride: 3
  }
}
layer {
  name: "conv2"
  type: "Convolution"
  bottom: "pool1"
  top: "conv2"
  param {
    lr_mult: 1
    decay_mult: 1
  }
  param {
    lr_mult: 2
    decay_mult: 0
  }
  convolution_param {
    num_output: 256
    pad: 2
    kernel_size: 3
    group: 2
    weight_filler {
      type: "gaussian"
      std: 0.01
    }
    bias_filler {
      type: "constant"
      value: 0.1
    }
  }
}
layer {
  name: "relu2"
  type: "ReLU"
  bottom: "conv2"
  top: "conv2"
}
layer {
  name: "norm2"
  type: "LRN"
  bottom: "conv2"
  top: "norm2"
  lrn_param {
    local_size: 5
    alpha: 0.0001
    beta: 0.75
  }
}
layer {
  name: "pool2"
  type: "Pooling"
  bottom: "norm2"
  top: "pool2"
  pooling_param {
    pool: MAX
    kernel_size: 3
    stride: 2
  }
}
layer {
  name: "conv3"
  type: "Convolution"
  bottom: "pool2"
  top: "conv3"
  param {
    lr_mult: 1
    decay_mult: 1
  }
  param {
    lr_mult: 2
    decay_mult: 0
  }
  convolution_param {
    num_output: 384
    pad: 1
    kernel_size: 3
    weight_filler {
      type: "gaussian"
      std: 0.01
    }
    bias_filler {
      type: "constant"
      value: 0
    }
  }
}
layer {
  name: "relu3"
  type: "ReLU"
  bottom: "conv3"
  top: "conv3"
}
layer {
  name: "conv4"
  type: "Convolution"
  bottom: "conv3"
  top: "conv4"
  param {
    lr_mult: 1
    decay_mult: 1
  }
  param {
    lr_mult: 2
    decay_mult: 0
  }
  convolution_param {
    num_output: 384
    pad: 1
    kernel_size: 3
    group: 2
    weight_filler {
      type: "gaussian"
      std: 0.01
    }
    bias_filler {
      type: "constant"
      value: 0.1
    }
  }
}
layer {
  name: "relu4"
  type: "ReLU"
  bottom: "conv4"
  top: "conv4"
}
layer {
  name: "conv5"
  type: "Convolution"
  bottom: "conv4"
  top: "conv5"
  param {
    lr_mult: 1
    decay_mult: 1
  }
  param {
    lr_mult: 2
    decay_mult: 0
  }
  convolution_param {
    num_output: 256
    pad: 1
    kernel_size: 3
    group: 2
    weight_filler {
      type: "gaussian"
      std: 0.01
    }
    bias_filler {
      type: "constant"
      value: 0.1
    }
  }
}
layer {
  name: "relu5"
  type: "ReLU"
  bottom: "conv5"
  top: "conv5"
}
layer {
  name: "pool5"
  type: "Pooling"
  bottom: "conv5"
  top: "pool5"
  pooling_param {
    pool: MAX
    kernel_size: 3
    stride: 2
  }
}
layer {
  name: "fc6"
  type: "InnerProduct"
  bottom: "pool5"
  top: "fc6"
  param {
    lr_mult: 1
    decay_mult: 1
  }
  param {
    lr_mult: 2
    decay_mult: 0
  }
  inner_product_param {
    num_output: 4096
    weight_filler {
      type: "gaussian"
      std: 0.005
    }
    bias_filler {
      type: "constant"
      value: 0.1
    }
  }
}
layer {
  name: "relu6"
  type: "ReLU"
  bottom: "fc6"
  top: "fc6"
}
layer {
  name: "drop6"
  type: "Dropout"
  bottom: "fc6"
  top: "fc6"
  dropout_param {
    dropout_ratio: 0.5
  }
}
layer {
  name: "fc7"
  type: "InnerProduct"
  bottom: "fc6"
  top: "fc7"
  param {
    lr_mult: 1
    decay_mult: 1
  }
  param {
    lr_mult: 2
    decay_mult: 0
  }
  inner_product_param {
    num_output: 4096
    weight_filler {
      type: "gaussian"
      std: 0.005
    }
    bias_filler {
      type: "constant"
      value: 0.1
    }
  }
}
layer {
  name: "relu7"
  type: "ReLU"
  bottom: "fc7"
  top: "fc7"
}
layer {
  name: "drop7"
  type: "Dropout"
  bottom: "fc7"
  top: "fc7"
  dropout_param {
    dropout_ratio: 0.5
  }
}
layer {
  name: "fc8"
  type: "InnerProduct"
  bottom: "fc7"
  top: "fc8"
  param {
    lr_mult: 1
    decay_mult: 1
  }
  param {
    lr_mult: 2
    decay_mult: 0
  }
  inner_product_param {
    num_output: 1000
    weight_filler {
      type: "gaussian"
      std: 0.01
    }
    bias_filler {
      type: "constant"
      value: 0
    }
  }
}
layer {
  name: "loss"
  type: "SoftmaxWithLoss"
  bottom: "fc8"
  bottom: "label"
  top: "loss"
}
I0715 22:58:56.991948 112908 layer_factory.hpp:77] Creating layer data
I0715 22:58:56.992655 112908 db_lmdb.cpp:35] Opened lmdb /home/neuroShare/data/ImageNet/ILSVRC2012_data/ilsvrc12_train_lmdb
I0715 22:58:56.992712 112908 net.cpp:84] Creating Layer data
I0715 22:58:56.992727 112908 net.cpp:380] data -> data
I0715 22:58:56.992759 112908 net.cpp:380] data -> label
I0715 22:58:56.992779 112908 data_transformer.cpp:25] Loading mean file from: data/ilsvrc12/imagenet_mean.binaryproto
I0715 22:58:57.007805 112908 data_layer.cpp:45] output data size: 128,3,227,227
I0715 22:58:57.250219 112908 net.cpp:122] Setting up data
I0715 22:58:57.250263 112908 net.cpp:129] Top shape: 128 3 227 227 (19787136)
I0715 22:58:57.250270 112908 net.cpp:129] Top shape: 128 (128)
I0715 22:58:57.250273 112908 net.cpp:137] Memory required for data: 79149056
I0715 22:58:57.250285 112908 layer_factory.hpp:77] Creating layer conv1
I0715 22:58:57.250360 112908 net.cpp:84] Creating Layer conv1
I0715 22:58:57.250367 112908 net.cpp:406] conv1 <- data
I0715 22:58:57.250385 112908 net.cpp:380] conv1 -> conv1
I0715 22:58:57.253137 112908 net.cpp:122] Setting up conv1
I0715 22:58:57.253150 112908 net.cpp:129] Top shape: 128 96 109 109 (145993728)
I0715 22:58:57.253154 112908 net.cpp:137] Memory required for data: 663123968
I0715 22:58:57.253170 112908 layer_factory.hpp:77] Creating layer relu1
I0715 22:58:57.253180 112908 net.cpp:84] Creating Layer relu1
I0715 22:58:57.253185 112908 net.cpp:406] relu1 <- conv1
I0715 22:58:57.253190 112908 net.cpp:367] relu1 -> conv1 (in-place)
I0715 22:58:57.253211 112908 net.cpp:122] Setting up relu1
I0715 22:58:57.253216 112908 net.cpp:129] Top shape: 128 96 109 109 (145993728)
I0715 22:58:57.253218 112908 net.cpp:137] Memory required for data: 1247098880
I0715 22:58:57.253221 112908 layer_factory.hpp:77] Creating layer norm1
I0715 22:58:57.253231 112908 net.cpp:84] Creating Layer norm1
I0715 22:58:57.253233 112908 net.cpp:406] norm1 <- conv1
I0715 22:58:57.253238 112908 net.cpp:380] norm1 -> norm1
I0715 22:58:57.253288 112908 net.cpp:122] Setting up norm1
I0715 22:58:57.253293 112908 net.cpp:129] Top shape: 128 96 109 109 (145993728)
I0715 22:58:57.253296 112908 net.cpp:137] Memory required for data: 1831073792
I0715 22:58:57.253340 112908 layer_factory.hpp:77] Creating layer pool1
I0715 22:58:57.253350 112908 net.cpp:84] Creating Layer pool1
I0715 22:58:57.253352 112908 net.cpp:406] pool1 <- norm1
I0715 22:58:57.253357 112908 net.cpp:380] pool1 -> pool1
I0715 22:58:57.253401 112908 net.cpp:122] Setting up pool1
I0715 22:58:57.253407 112908 net.cpp:129] Top shape: 128 96 35 35 (15052800)
I0715 22:58:57.253410 112908 net.cpp:137] Memory required for data: 1891284992
I0715 22:58:57.253413 112908 layer_factory.hpp:77] Creating layer conv2
I0715 22:58:57.253423 112908 net.cpp:84] Creating Layer conv2
I0715 22:58:57.253427 112908 net.cpp:406] conv2 <- pool1
I0715 22:58:57.253432 112908 net.cpp:380] conv2 -> conv2
I0715 22:58:57.268088 112908 net.cpp:122] Setting up conv2
I0715 22:58:57.268103 112908 net.cpp:129] Top shape: 128 256 37 37 (44859392)
I0715 22:58:57.268113 112908 net.cpp:137] Memory required for data: 2070722560
I0715 22:58:57.268123 112908 layer_factory.hpp:77] Creating layer relu2
I0715 22:58:57.268141 112908 net.cpp:84] Creating Layer relu2
I0715 22:58:57.268144 112908 net.cpp:406] relu2 <- conv2
I0715 22:58:57.268151 112908 net.cpp:367] relu2 -> conv2 (in-place)
I0715 22:58:57.268168 112908 net.cpp:122] Setting up relu2
I0715 22:58:57.268172 112908 net.cpp:129] Top shape: 128 256 37 37 (44859392)
I0715 22:58:57.268175 112908 net.cpp:137] Memory required for data: 2250160128
I0715 22:58:57.268178 112908 layer_factory.hpp:77] Creating layer norm2
I0715 22:58:57.268184 112908 net.cpp:84] Creating Layer norm2
I0715 22:58:57.268187 112908 net.cpp:406] norm2 <- conv2
I0715 22:58:57.268193 112908 net.cpp:380] norm2 -> norm2
I0715 22:58:57.268227 112908 net.cpp:122] Setting up norm2
I0715 22:58:57.268232 112908 net.cpp:129] Top shape: 128 256 37 37 (44859392)
I0715 22:58:57.268235 112908 net.cpp:137] Memory required for data: 2429597696
I0715 22:58:57.268239 112908 layer_factory.hpp:77] Creating layer pool2
I0715 22:58:57.268245 112908 net.cpp:84] Creating Layer pool2
I0715 22:58:57.268249 112908 net.cpp:406] pool2 <- norm2
I0715 22:58:57.268254 112908 net.cpp:380] pool2 -> pool2
I0715 22:58:57.268281 112908 net.cpp:122] Setting up pool2
I0715 22:58:57.268296 112908 net.cpp:129] Top shape: 128 256 18 18 (10616832)
I0715 22:58:57.268299 112908 net.cpp:137] Memory required for data: 2472065024
I0715 22:58:57.268302 112908 layer_factory.hpp:77] Creating layer conv3
I0715 22:58:57.268323 112908 net.cpp:84] Creating Layer conv3
I0715 22:58:57.268327 112908 net.cpp:406] conv3 <- pool2
I0715 22:58:57.268334 112908 net.cpp:380] conv3 -> conv3
I0715 22:58:57.295939 112908 net.cpp:122] Setting up conv3
I0715 22:58:57.295953 112908 net.cpp:129] Top shape: 128 384 18 18 (15925248)
I0715 22:58:57.295955 112908 net.cpp:137] Memory required for data: 2535766016
I0715 22:58:57.295964 112908 layer_factory.hpp:77] Creating layer relu3
I0715 22:58:57.295969 112908 net.cpp:84] Creating Layer relu3
I0715 22:58:57.295972 112908 net.cpp:406] relu3 <- conv3
I0715 22:58:57.295977 112908 net.cpp:367] relu3 -> conv3 (in-place)
I0715 22:58:57.295984 112908 net.cpp:122] Setting up relu3
I0715 22:58:57.295987 112908 net.cpp:129] Top shape: 128 384 18 18 (15925248)
I0715 22:58:57.295990 112908 net.cpp:137] Memory required for data: 2599467008
I0715 22:58:57.295992 112908 layer_factory.hpp:77] Creating layer conv4
I0715 22:58:57.296011 112908 net.cpp:84] Creating Layer conv4
I0715 22:58:57.296015 112908 net.cpp:406] conv4 <- conv3
I0715 22:58:57.296020 112908 net.cpp:380] conv4 -> conv4
I0715 22:58:57.316232 112908 net.cpp:122] Setting up conv4
I0715 22:58:57.316243 112908 net.cpp:129] Top shape: 128 384 18 18 (15925248)
I0715 22:58:57.316246 112908 net.cpp:137] Memory required for data: 2663168000
I0715 22:58:57.316251 112908 layer_factory.hpp:77] Creating layer relu4
I0715 22:58:57.316256 112908 net.cpp:84] Creating Layer relu4
I0715 22:58:57.316259 112908 net.cpp:406] relu4 <- conv4
I0715 22:58:57.316264 112908 net.cpp:367] relu4 -> conv4 (in-place)
I0715 22:58:57.316270 112908 net.cpp:122] Setting up relu4
I0715 22:58:57.316274 112908 net.cpp:129] Top shape: 128 384 18 18 (15925248)
I0715 22:58:57.316303 112908 net.cpp:137] Memory required for data: 2726868992
I0715 22:58:57.316305 112908 layer_factory.hpp:77] Creating layer conv5
I0715 22:58:57.316315 112908 net.cpp:84] Creating Layer conv5
I0715 22:58:57.316318 112908 net.cpp:406] conv5 <- conv4
I0715 22:58:57.316324 112908 net.cpp:380] conv5 -> conv5
I0715 22:58:57.330001 112908 net.cpp:122] Setting up conv5
I0715 22:58:57.330013 112908 net.cpp:129] Top shape: 128 256 18 18 (10616832)
I0715 22:58:57.330016 112908 net.cpp:137] Memory required for data: 2769336320
I0715 22:58:57.330024 112908 layer_factory.hpp:77] Creating layer relu5
I0715 22:58:57.330030 112908 net.cpp:84] Creating Layer relu5
I0715 22:58:57.330034 112908 net.cpp:406] relu5 <- conv5
I0715 22:58:57.330039 112908 net.cpp:367] relu5 -> conv5 (in-place)
I0715 22:58:57.330044 112908 net.cpp:122] Setting up relu5
I0715 22:58:57.330049 112908 net.cpp:129] Top shape: 128 256 18 18 (10616832)
I0715 22:58:57.330050 112908 net.cpp:137] Memory required for data: 2811803648
I0715 22:58:57.330052 112908 layer_factory.hpp:77] Creating layer pool5
I0715 22:58:57.330057 112908 net.cpp:84] Creating Layer pool5
I0715 22:58:57.330071 112908 net.cpp:406] pool5 <- conv5
I0715 22:58:57.330075 112908 net.cpp:380] pool5 -> pool5
I0715 22:58:57.330111 112908 net.cpp:122] Setting up pool5
I0715 22:58:57.330117 112908 net.cpp:129] Top shape: 128 256 9 9 (2654208)
I0715 22:58:57.330132 112908 net.cpp:137] Memory required for data: 2822420480
I0715 22:58:57.330134 112908 layer_factory.hpp:77] Creating layer fc6
I0715 22:58:57.330148 112908 net.cpp:84] Creating Layer fc6
I0715 22:58:57.330152 112908 net.cpp:406] fc6 <- pool5
I0715 22:58:57.330158 112908 net.cpp:380] fc6 -> fc6
I0715 22:58:59.758527 112908 net.cpp:122] Setting up fc6
I0715 22:58:59.758591 112908 net.cpp:129] Top shape: 128 4096 (524288)
I0715 22:58:59.758595 112908 net.cpp:137] Memory required for data: 2824517632
I0715 22:58:59.758615 112908 layer_factory.hpp:77] Creating layer relu6
I0715 22:58:59.758658 112908 net.cpp:84] Creating Layer relu6
I0715 22:58:59.758664 112908 net.cpp:406] relu6 <- fc6
I0715 22:58:59.758682 112908 net.cpp:367] relu6 -> fc6 (in-place)
I0715 22:58:59.758692 112908 net.cpp:122] Setting up relu6
I0715 22:58:59.758695 112908 net.cpp:129] Top shape: 128 4096 (524288)
I0715 22:58:59.758698 112908 net.cpp:137] Memory required for data: 2826614784
I0715 22:58:59.758702 112908 layer_factory.hpp:77] Creating layer drop6
I0715 22:58:59.758719 112908 net.cpp:84] Creating Layer drop6
I0715 22:58:59.758723 112908 net.cpp:406] drop6 <- fc6
I0715 22:58:59.758729 112908 net.cpp:367] drop6 -> fc6 (in-place)
I0715 22:58:59.758774 112908 net.cpp:122] Setting up drop6
I0715 22:58:59.758780 112908 net.cpp:129] Top shape: 128 4096 (524288)
I0715 22:58:59.758783 112908 net.cpp:137] Memory required for data: 2828711936
I0715 22:58:59.758786 112908 layer_factory.hpp:77] Creating layer fc7
I0715 22:58:59.758813 112908 net.cpp:84] Creating Layer fc7
I0715 22:58:59.758816 112908 net.cpp:406] fc7 <- fc6
I0715 22:58:59.758823 112908 net.cpp:380] fc7 -> fc7
I0715 22:59:00.239574 112908 net.cpp:122] Setting up fc7
I0715 22:59:00.239609 112908 net.cpp:129] Top shape: 128 4096 (524288)
I0715 22:59:00.239614 112908 net.cpp:137] Memory required for data: 2830809088
I0715 22:59:00.239625 112908 layer_factory.hpp:77] Creating layer relu7
I0715 22:59:00.239642 112908 net.cpp:84] Creating Layer relu7
I0715 22:59:00.239648 112908 net.cpp:406] relu7 <- fc7
I0715 22:59:00.239656 112908 net.cpp:367] relu7 -> fc7 (in-place)
I0715 22:59:00.239677 112908 net.cpp:122] Setting up relu7
I0715 22:59:00.239681 112908 net.cpp:129] Top shape: 128 4096 (524288)
I0715 22:59:00.239684 112908 net.cpp:137] Memory required for data: 2832906240
I0715 22:59:00.239687 112908 layer_factory.hpp:77] Creating layer drop7
I0715 22:59:00.239696 112908 net.cpp:84] Creating Layer drop7
I0715 22:59:00.239698 112908 net.cpp:406] drop7 <- fc7
I0715 22:59:00.239704 112908 net.cpp:367] drop7 -> fc7 (in-place)
I0715 22:59:00.239722 112908 net.cpp:122] Setting up drop7
I0715 22:59:00.239753 112908 net.cpp:129] Top shape: 128 4096 (524288)
I0715 22:59:00.239756 112908 net.cpp:137] Memory required for data: 2835003392
I0715 22:59:00.239759 112908 layer_factory.hpp:77] Creating layer fc8
I0715 22:59:00.239770 112908 net.cpp:84] Creating Layer fc8
I0715 22:59:00.239773 112908 net.cpp:406] fc8 <- fc7
I0715 22:59:00.239779 112908 net.cpp:380] fc8 -> fc8
I0715 22:59:00.357348 112908 net.cpp:122] Setting up fc8
I0715 22:59:00.357378 112908 net.cpp:129] Top shape: 128 1000 (128000)
I0715 22:59:00.357380 112908 net.cpp:137] Memory required for data: 2835515392
I0715 22:59:00.357389 112908 layer_factory.hpp:77] Creating layer loss
I0715 22:59:00.357406 112908 net.cpp:84] Creating Layer loss
I0715 22:59:00.357412 112908 net.cpp:406] loss <- fc8
I0715 22:59:00.357417 112908 net.cpp:406] loss <- label
I0715 22:59:00.357441 112908 net.cpp:380] loss -> loss
I0715 22:59:00.357527 112908 layer_factory.hpp:77] Creating layer loss
…
I0715 22:59:00.359115 112908 net.cpp:294] The NetState phase (1) differed from the phase (0) specified by a rule in layer data
I0715 22:59:00.359344 112908 net.cpp:51] Initializing net from parameters: 
name: "AlexNet"
state {
  phase: TEST
}
layer {
  name: "data"
  type: "Data"
  top: "data"
  top: "label"
  include {
    phase: TEST
  }
  transform_param {
    mirror: false
    crop_size: 227
    mean_file: "data/ilsvrc12/imagenet_mean.binaryproto"
  }
  data_param {
    source: "/home/neuroShare/data/ImageNet/ILSVRC2012_data/ilsvrc12_val_lmdb"
    batch_size: 50
    backend: LMDB
  }
}
layer {
  name: "conv1"
  type: "Convolution"
  bottom: "data"
  top: "conv1"
  param {
    lr_mult: 1
    decay_mult: 1
  }
  param {
    lr_mult: 2
    decay_mult: 0
  }
  convolution_param {
    num_output: 96
    kernel_size: 11
    stride: 2
    weight_filler {
      type: "gaussian"
      std: 0.01
    }
    bias_filler {
      type: "constant"
      value: 0
    }
  }
}
layer {
  name: "relu1"
  type: "ReLU"
  bottom: "conv1"
  top: "conv1"
}
layer {
  name: "norm1"
  type: "LRN"
  bottom: "conv1"
  top: "norm1"
  lrn_param {
    local_size: 5
    alpha: 0.0001
    beta: 0.75
  }
}
layer {
  name: "pool1"
  type: "Pooling"
  bottom: "norm1"
  top: "pool1"
  pooling_param {
    pool: MAX
    kernel_size: 7
    stride: 3
  }
}
layer {
  name: "conv2"
  type: "Convolution"
  bottom: "pool1"
  top: "conv2"
  param {
    lr_mult: 1
    decay_mult: 1
  }
  param {
    lr_mult: 2
    decay_mult: 0
  }
  convolution_param {
    num_output: 256
    pad: 2
    kernel_size: 3
    group: 2
    weight_filler {
      type: "gaussian"
      std: 0.01
    }
    bias_filler {
      type: "constant"
      value: 0.1
    }
  }
}
layer {
  name: "relu2"
  type: "ReLU"
  bottom: "conv2"
  top: "conv2"
}
layer {
  name: "norm2"
  type: "LRN"
  bottom: "conv2"
  top: "norm2"
  lrn_param {
    local_size: 5
    alpha: 0.0001
    beta: 0.75
  }
}
layer {
  name: "pool2"
  type: "Pooling"
  bottom: "norm2"
  top: "pool2"
  pooling_param {
    pool: MAX
    kernel_size: 3
    stride: 2
  }
}
layer {
  name: "conv3"
  type: "Convolution"
  bottom: "pool2"
  top: "conv3"
  param {
    lr_mult: 1
    decay_mult: 1
  }
  param {
    lr_mult: 2
    decay_mult: 0
  }
  convolution_param {
    num_output: 384
    pad: 1
    kernel_size: 3
    weight_filler {
      type: "gaussian"
      std: 0.01
    }
    bias_filler {
      type: "constant"
      value: 0
    }
  }
}
layer {
  name: "relu3"
  type: "ReLU"
  bottom: "conv3"
  top: "conv3"
}
layer {
  name: "conv4"
  type: "Convolution"
  bottom: "conv3"
  top: "conv4"
  param {
    lr_mult: 1
    decay_mult: 1
  }
  param {
    lr_mult: 2
    decay_mult: 0
  }
  convolution_param {
    num_output: 384
    pad: 1
    kernel_size: 3
    group: 2
    weight_filler {
      type: "gaussian"
      std: 0.01
    }
    bias_filler {
      type: "constant"
      value: 0.1
    }
  }
}
layer {
  name: "relu4"
  type: "ReLU"
  bottom: "conv4"
  top: "conv4"
}
layer {
  name: "conv5"
  type: "Convolution"
  bottom: "conv4"
  top: "conv5"
  param {
    lr_mult: 1
    decay_mult: 1
  }
  param {
    lr_mult: 2
    decay_mult: 0
  }
  convolution_param {
    num_output: 256
    pad: 1
    kernel_size: 3
    group: 2
    weight_filler {
      type: "gaussian"
      std: 0.01
    }
    bias_filler {
      type: "constant"
      value: 0.1
    }
  }
}
layer {
  name: "relu5"
  type: "ReLU"
  bottom: "conv5"
  top: "conv5"
}
layer {
  name: "pool5"
  type: "Pooling"
  bottom: "conv5"
  top: "pool5"
  pooling_param {
    pool: MAX
    kernel_size: 3
    stride: 2
  }
}
layer {
  name: "fc6"
  type: "InnerProduct"
  bottom: "pool5"
  top: "fc6"
  param {
    lr_mult: 1
    decay_mult: 1
  }
  param {
    lr_mult: 2
    decay_mult: 0
  }
  inner_product_param {
    num_output: 4096
    weight_filler {
      type: "gaussian"
      std: 0.005
    }
    bias_filler {
      type: "constant"
      value: 0.1
    }
  }
}
layer {
  name: "relu6"
  type: "ReLU"
  bottom: "fc6"
  top: "fc6"
}
layer {
  name: "drop6"
  type: "Dropout"
  bottom: "fc6"
  top: "fc6"
  dropout_param {
    dropout_ratio: 0.5
  }
}
layer {
  name: "fc7"
  type: "InnerProduct"
  bottom: "fc6"
  top: "fc7"
  param {
    lr_mult: 1
    decay_mult: 1
  }
  param {
    lr_mult: 2
    decay_mult: 0
  }
  inner_product_param {
    num_output: 4096
    weight_filler {
      type: "gaussian"
      std: 0.005
    }
    bias_filler {
      type: "constant"
      value: 0.1
    }
  }
}
layer {
  name: "relu7"
  type: "ReLU"
  bottom: "fc7"
  top: "fc7"
}
layer {
  name: "drop7"
  type: "Dropout"
  bottom: "fc7"
  top: "fc7"
  dropout_param {
    dropout_ratio: 0.5
  }
}
layer {
  name: "fc8"
  type: "InnerProduct"
  bottom: "fc7"
  top: "fc8"
  param {
    lr_mult: 1
    decay_mult: 1
  }
  param {
    lr_mult: 2
    decay_mult: 0
  }
  inner_product_param {
    num_output: 1000
    weight_filler {
      type: "gaussian"
      std: 0.01
    }
    bias_filler {
      type: "constant"
      value: 0
    }
  }
}
layer {
  name: "accuracy"
  type: "Accuracy"
  bottom: "fc8"
  bottom: "label"
  top: "accuracy"
  include {
    phase: TEST
  }
}
layer {
  name: "loss"
  type: "SoftmaxWithLoss"
  bottom: "fc8"
  bottom: "label"
  top: "loss"
}
I0715 22:59:00.359525 112908 layer_factory.hpp:77] Creating layer data
I0715 22:59:00.359612 112908 db_lmdb.cpp:35] Opened lmdb /home/neuroShare/data/ImageNet/ILSVRC2012_data/ilsvrc12_val_lmdb
I0715 22:59:00.359638 112908 net.cpp:84] Creating Layer data
I0715 22:59:00.359647 112908 net.cpp:380] data -> data
I0715 22:59:00.359658 112908 net.cpp:380] data -> label
I0715 22:59:00.359665 112908 data_transformer.cpp:25] Loading mean file from: data/ilsvrc12/imagenet_mean.binaryproto
I0715 22:59:00.362572 112908 data_layer.cpp:45] output data size: 50,3,227,227
I0715 22:59:00.449532 112908 net.cpp:122] Setting up data
I0715 22:59:00.449579 112908 net.cpp:129] Top shape: 50 3 227 227 (7729350)
I0715 22:59:00.449584 112908 net.cpp:129] Top shape: 50 (50)
I0715 22:59:00.449589 112908 net.cpp:137] Memory required for data: 30917600
I0715 22:59:00.449595 112908 layer_factory.hpp:77] Creating layer label_data_1_split
I0715 22:59:00.449617 112908 net.cpp:84] Creating Layer label_data_1_split
I0715 22:59:00.449633 112908 net.cpp:406] label_data_1_split <- label
I0715 22:59:00.449641 112908 net.cpp:380] label_data_1_split -> label_data_1_split_0
I0715 22:59:00.449654 112908 net.cpp:380] label_data_1_split -> label_data_1_split_1
I0715 22:59:00.449703 112908 net.cpp:122] Setting up label_data_1_split
I0715 22:59:00.449709 112908 net.cpp:129] Top shape: 50 (50)
I0715 22:59:00.449713 112908 net.cpp:129] Top shape: 50 (50)
I0715 22:59:00.449717 112908 net.cpp:137] Memory required for data: 30918000
I0715 22:59:00.449719 112908 layer_factory.hpp:77] Creating layer conv1
I0715 22:59:00.449733 112908 net.cpp:84] Creating Layer conv1
I0715 22:59:00.449736 112908 net.cpp:406] conv1 <- data
I0715 22:59:00.449743 112908 net.cpp:380] conv1 -> conv1
I0715 22:59:00.451174 112908 net.cpp:122] Setting up conv1
I0715 22:59:00.451184 112908 net.cpp:129] Top shape: 50 96 109 109 (57028800)
I0715 22:59:00.451187 112908 net.cpp:137] Memory required for data: 259033200
I0715 22:59:00.451196 112908 layer_factory.hpp:77] Creating layer relu1
I0715 22:59:00.451202 112908 net.cpp:84] Creating Layer relu1
I0715 22:59:00.451205 112908 net.cpp:406] relu1 <- conv1
I0715 22:59:00.451210 112908 net.cpp:367] relu1 -> conv1 (in-place)
I0715 22:59:00.451216 112908 net.cpp:122] Setting up relu1
I0715 22:59:00.451220 112908 net.cpp:129] Top shape: 50 96 109 109 (57028800)
I0715 22:59:00.451222 112908 net.cpp:137] Memory required for data: 487148400
I0715 22:59:00.451225 112908 layer_factory.hpp:77] Creating layer norm1
I0715 22:59:00.451244 112908 net.cpp:84] Creating Layer norm1
I0715 22:59:00.451247 112908 net.cpp:406] norm1 <- conv1
I0715 22:59:00.451252 112908 net.cpp:380] norm1 -> norm1
I0715 22:59:00.451287 112908 net.cpp:122] Setting up norm1
I0715 22:59:00.451290 112908 net.cpp:129] Top shape: 50 96 109 109 (57028800)
I0715 22:59:00.451293 112908 net.cpp:137] Memory required for data: 715263600
I0715 22:59:00.451297 112908 layer_factory.hpp:77] Creating layer pool1
I0715 22:59:00.451303 112908 net.cpp:84] Creating Layer pool1
I0715 22:59:00.451305 112908 net.cpp:406] pool1 <- norm1
I0715 22:59:00.451310 112908 net.cpp:380] pool1 -> pool1
I0715 22:59:00.451339 112908 net.cpp:122] Setting up pool1
I0715 22:59:00.451342 112908 net.cpp:129] Top shape: 50 96 35 35 (5880000)
I0715 22:59:00.451344 112908 net.cpp:137] Memory required for data: 738783600
I0715 22:59:00.451347 112908 layer_factory.hpp:77] Creating layer conv2
I0715 22:59:00.451355 112908 net.cpp:84] Creating Layer conv2
I0715 22:59:00.451359 112908 net.cpp:406] conv2 <- pool1
I0715 22:59:00.451364 112908 net.cpp:380] conv2 -> conv2
I0715 22:59:00.458081 112908 net.cpp:122] Setting up conv2
I0715 22:59:00.458128 112908 net.cpp:129] Top shape: 50 256 37 37 (17523200)
I0715 22:59:00.458133 112908 net.cpp:137] Memory required for data: 808876400
I0715 22:59:00.458143 112908 layer_factory.hpp:77] Creating layer relu2
I0715 22:59:00.458151 112908 net.cpp:84] Creating Layer relu2
I0715 22:59:00.458155 112908 net.cpp:406] relu2 <- conv2
I0715 22:59:00.458161 112908 net.cpp:367] relu2 -> conv2 (in-place)
I0715 22:59:00.458168 112908 net.cpp:122] Setting up relu2
I0715 22:59:00.458173 112908 net.cpp:129] Top shape: 50 256 37 37 (17523200)
I0715 22:59:00.458178 112908 net.cpp:137] Memory required for data: 878969200
I0715 22:59:00.458180 112908 layer_factory.hpp:77] Creating layer norm2
I0715 22:59:00.458189 112908 net.cpp:84] Creating Layer norm2
I0715 22:59:00.458191 112908 net.cpp:406] norm2 <- conv2
I0715 22:59:00.458197 112908 net.cpp:380] norm2 -> norm2
I0715 22:59:00.458240 112908 net.cpp:122] Setting up norm2
I0715 22:59:00.458245 112908 net.cpp:129] Top shape: 50 256 37 37 (17523200)
I0715 22:59:00.458248 112908 net.cpp:137] Memory required for data: 949062000
I0715 22:59:00.458251 112908 layer_factory.hpp:77] Creating layer pool2
I0715 22:59:00.458258 112908 net.cpp:84] Creating Layer pool2
I0715 22:59:00.458261 112908 net.cpp:406] pool2 <- norm2
I0715 22:59:00.458267 112908 net.cpp:380] pool2 -> pool2
I0715 22:59:00.458302 112908 net.cpp:122] Setting up pool2
I0715 22:59:00.458307 112908 net.cpp:129] Top shape: 50 256 18 18 (4147200)
I0715 22:59:00.458309 112908 net.cpp:137] Memory required for data: 965650800
I0715 22:59:00.458313 112908 layer_factory.hpp:77] Creating layer conv3
I0715 22:59:00.458323 112908 net.cpp:84] Creating Layer conv3
I0715 22:59:00.458328 112908 net.cpp:406] conv3 <- pool2
I0715 22:59:00.458334 112908 net.cpp:380] conv3 -> conv3
I0715 22:59:00.485736 112908 net.cpp:122] Setting up conv3
I0715 22:59:00.485747 112908 net.cpp:129] Top shape: 50 384 18 18 (6220800)
I0715 22:59:00.485750 112908 net.cpp:137] Memory required for data: 990534000
I0715 22:59:00.485759 112908 layer_factory.hpp:77] Creating layer relu3
I0715 22:59:00.485764 112908 net.cpp:84] Creating Layer relu3
I0715 22:59:00.485767 112908 net.cpp:406] relu3 <- conv3
I0715 22:59:00.485771 112908 net.cpp:367] relu3 -> conv3 (in-place)
I0715 22:59:00.485777 112908 net.cpp:122] Setting up relu3
I0715 22:59:00.485781 112908 net.cpp:129] Top shape: 50 384 18 18 (6220800)
I0715 22:59:00.485783 112908 net.cpp:137] Memory required for data: 1015417200
I0715 22:59:00.485786 112908 layer_factory.hpp:77] Creating layer conv4
I0715 22:59:00.485805 112908 net.cpp:84] Creating Layer conv4
I0715 22:59:00.485807 112908 net.cpp:406] conv4 <- conv3
I0715 22:59:00.485813 112908 net.cpp:380] conv4 -> conv4
I0715 22:59:00.506239 112908 net.cpp:122] Setting up conv4
I0715 22:59:00.506250 112908 net.cpp:129] Top shape: 50 384 18 18 (6220800)
I0715 22:59:00.506253 112908 net.cpp:137] Memory required for data: 1040300400
I0715 22:59:00.506259 112908 layer_factory.hpp:77] Creating layer relu4
I0715 22:59:00.506264 112908 net.cpp:84] Creating Layer relu4
I0715 22:59:00.506268 112908 net.cpp:406] relu4 <- conv4
I0715 22:59:00.506273 112908 net.cpp:367] relu4 -> conv4 (in-place)
I0715 22:59:00.506278 112908 net.cpp:122] Setting up relu4
I0715 22:59:00.506283 112908 net.cpp:129] Top shape: 50 384 18 18 (6220800)
I0715 22:59:00.506284 112908 net.cpp:137] Memory required for data: 1065183600
I0715 22:59:00.506287 112908 layer_factory.hpp:77] Creating layer conv5
I0715 22:59:00.506294 112908 net.cpp:84] Creating Layer conv5
I0715 22:59:00.506309 112908 net.cpp:406] conv5 <- conv4
I0715 22:59:00.506314 112908 net.cpp:380] conv5 -> conv5
I0715 22:59:00.520843 112908 net.cpp:122] Setting up conv5
I0715 22:59:00.520855 112908 net.cpp:129] Top shape: 50 256 18 18 (4147200)
I0715 22:59:00.520859 112908 net.cpp:137] Memory required for data: 1081772400
I0715 22:59:00.520866 112908 layer_factory.hpp:77] Creating layer relu5
I0715 22:59:00.520872 112908 net.cpp:84] Creating Layer relu5
I0715 22:59:00.520875 112908 net.cpp:406] relu5 <- conv5
I0715 22:59:00.520880 112908 net.cpp:367] relu5 -> conv5 (in-place)
I0715 22:59:00.520900 112908 net.cpp:122] Setting up relu5
I0715 22:59:00.520915 112908 net.cpp:129] Top shape: 50 256 18 18 (4147200)
I0715 22:59:00.520917 112908 net.cpp:137] Memory required for data: 1098361200
I0715 22:59:00.520920 112908 layer_factory.hpp:77] Creating layer pool5
I0715 22:59:00.520928 112908 net.cpp:84] Creating Layer pool5
I0715 22:59:00.520931 112908 net.cpp:406] pool5 <- conv5
I0715 22:59:00.520936 112908 net.cpp:380] pool5 -> pool5
I0715 22:59:00.520972 112908 net.cpp:122] Setting up pool5
I0715 22:59:00.520977 112908 net.cpp:129] Top shape: 50 256 9 9 (1036800)
I0715 22:59:00.520978 112908 net.cpp:137] Memory required for data: 1102508400
I0715 22:59:00.520982 112908 layer_factory.hpp:77] Creating layer fc6
I0715 22:59:00.520989 112908 net.cpp:84] Creating Layer fc6
I0715 22:59:00.520992 112908 net.cpp:406] fc6 <- pool5
I0715 22:59:00.520998 112908 net.cpp:380] fc6 -> fc6
I0715 22:59:03.034410 112908 net.cpp:122] Setting up fc6
I0715 22:59:03.034451 112908 net.cpp:129] Top shape: 50 4096 (204800)
I0715 22:59:03.034454 112908 net.cpp:137] Memory required for data: 1103327600
I0715 22:59:03.034468 112908 layer_factory.hpp:77] Creating layer relu6
I0715 22:59:03.034484 112908 net.cpp:84] Creating Layer relu6
I0715 22:59:03.034489 112908 net.cpp:406] relu6 <- fc6
I0715 22:59:03.034497 112908 net.cpp:367] relu6 -> fc6 (in-place)
I0715 22:59:03.034518 112908 net.cpp:122] Setting up relu6
I0715 22:59:03.034521 112908 net.cpp:129] Top shape: 50 4096 (204800)
I0715 22:59:03.034524 112908 net.cpp:137] Memory required for data: 1104146800
I0715 22:59:03.034528 112908 layer_factory.hpp:77] Creating layer drop6
I0715 22:59:03.034538 112908 net.cpp:84] Creating Layer drop6
I0715 22:59:03.034541 112908 net.cpp:406] drop6 <- fc6
I0715 22:59:03.034546 112908 net.cpp:367] drop6 -> fc6 (in-place)
I0715 22:59:03.034577 112908 net.cpp:122] Setting up drop6
I0715 22:59:03.034584 112908 net.cpp:129] Top shape: 50 4096 (204800)
I0715 22:59:03.034585 112908 net.cpp:137] Memory required for data: 1104966000
I0715 22:59:03.034588 112908 layer_factory.hpp:77] Creating layer fc7
I0715 22:59:03.034597 112908 net.cpp:84] Creating Layer fc7
I0715 22:59:03.034600 112908 net.cpp:406] fc7 <- fc6
I0715 22:59:03.034607 112908 net.cpp:380] fc7 -> fc7
I0715 22:59:03.531152 112908 net.cpp:122] Setting up fc7
I0715 22:59:03.531185 112908 net.cpp:129] Top shape: 50 4096 (204800)
I0715 22:59:03.531188 112908 net.cpp:137] Memory required for data: 1105785200
I0715 22:59:03.531198 112908 layer_factory.hpp:77] Creating layer relu7
I0715 22:59:03.531209 112908 net.cpp:84] Creating Layer relu7
I0715 22:59:03.531214 112908 net.cpp:406] relu7 <- fc7
I0715 22:59:03.531222 112908 net.cpp:367] relu7 -> fc7 (in-place)
I0715 22:59:03.531230 112908 net.cpp:122] Setting up relu7
I0715 22:59:03.531234 112908 net.cpp:129] Top shape: 50 4096 (204800)
I0715 22:59:03.531249 112908 net.cpp:137] Memory required for data: 1106604400
I0715 22:59:03.531251 112908 layer_factory.hpp:77] Creating layer drop7
I0715 22:59:03.531258 112908 net.cpp:84] Creating Layer drop7
I0715 22:59:03.531262 112908 net.cpp:406] drop7 <- fc7
I0715 22:59:03.531268 112908 net.cpp:367] drop7 -> fc7 (in-place)
I0715 22:59:03.531294 112908 net.cpp:122] Setting up drop7
I0715 22:59:03.531301 112908 net.cpp:129] Top shape: 50 4096 (204800)
I0715 22:59:03.531303 112908 net.cpp:137] Memory required for data: 1107423600
I0715 22:59:03.531306 112908 layer_factory.hpp:77] Creating layer fc8
I0715 22:59:03.531316 112908 net.cpp:84] Creating Layer fc8
I0715 22:59:03.531319 112908 net.cpp:406] fc8 <- fc7
I0715 22:59:03.531325 112908 net.cpp:380] fc8 -> fc8
I0715 22:59:03.651866 112908 net.cpp:122] Setting up fc8
I0715 22:59:03.651895 112908 net.cpp:129] Top shape: 50 1000 (50000)
I0715 22:59:03.651898 112908 net.cpp:137] Memory required for data: 1107623600
I0715 22:59:03.651907 112908 layer_factory.hpp:77] Creating layer fc8_fc8_0_split
I0715 22:59:03.651916 112908 net.cpp:84] Creating Layer fc8_fc8_0_split
I0715 22:59:03.651921 112908 net.cpp:406] fc8_fc8_0_split <- fc8
I0715 22:59:03.651976 112908 net.cpp:380] fc8_fc8_0_split -> fc8_fc8_0_split_0
I0715 22:59:03.651986 112908 net.cpp:380] fc8_fc8_0_split -> fc8_fc8_0_split_1
I0715 22:59:03.652026 112908 net.cpp:122] Setting up fc8_fc8_0_split
I0715 22:59:03.652032 112908 net.cpp:129] Top shape: 50 1000 (50000)
I0715 22:59:03.652036 112908 net.cpp:129] Top shape: 50 1000 (50000)
I0715 22:59:03.652040 112908 net.cpp:137] Memory required for data: 1108023600
I0715 22:59:03.652042 112908 layer_factory.hpp:77] Creating layer accuracy
I0715 22:59:03.652055 112908 net.cpp:84] Creating Layer accuracy
I0715 22:59:03.652058 112908 net.cpp:406] accuracy <- fc8_fc8_0_split_0
I0715 22:59:03.652062 112908 net.cpp:406] accuracy <- label_data_1_split_0
I0715 22:59:03.652068 112908 net.cpp:380] accuracy -> accuracy
…
